McAndroidApp/app/src/main/ml/model1.tflite (tflite, 166944 bytes, 12 tensors)

sequential/dense_1/BiasAdd/ReadVariableOp f4 [10]
000000 ed cf f9 bd c2 9c cb 3d 59 cf 1b bd 4a 38 3c bd
       -0.12197862 0.099420086 -0.03803954 -0.04595212
000010 28 e4 68 bd d7 15 00 3c 27 08 bd bc da 9a f6 3c
       -0.05685821 0.007817707 -0.023075176 0.030103136
000020 4c 97 58 3c a0 dc 82 bc
       0.013219666 -0.015974343

sequential/dense/BiasAdd/ReadVariableOp f4 [128]
000000 37 37 85 bd 04 e6 31 bd 96 81 a3 ba 14 45 0a bd
       -0.06504672 -0.04343225 -0.0012474533 -0.033757284
000010 39 59 6a bd a7 8d a5 bd be 9f 94 3c 5f 87 e9 bc
       -0.057213996 -0.08083659 0.018142577 -0.028506933
000020 cc e1 f4 bc 47 7c 41 3c f5 0b 6a bc ed 5b 4b 3c
       -0.029892825 0.011809415 -0.014285077 0.0124120535
000030 c9 e1 bb 3b af 07 88 bb 88 c2 dc bd 2b 31 8b bc
       0.005733703 -0.0041513066 -0.107792914 -0.016991219
000040 76 bb 27 bc 7d 21 77 bc 9a 06 39 bc 30 bb a1 3c
       -0.010237565 -0.015083668 -0.011293078 0.019742578
000050 28 a0 83 bd 32 38 05 3d 81 b0 67 bc 36 ba 8d 39
       -0.06427032 0.032524295 -0.014141203 0.00027032354
000060 88 9a 8b 3c 20 2a 90 bd 06 31 33 3b 6b f8 f1 bd
       0.01704146 -0.07039285 0.0027342453 -0.1181496
000070 42 5b 3c bd a0 12 7d bc 99 2a 2f 3d 58 2a af bc
       -0.045985468 -0.015446335 0.042765234 -0.021382496
000080 d7 a2 7f bd c5 3c a5 3d eb 24 b5 bc ee 1f ac bc
       -0.062411156 0.080682315 -0.02211233 -0.021011319
000090 a3 a0 00 3c f8 a3 a3 bd 90 ef 0d 3d 70 42 0f 3d
       0.007850799 -0.07990259 0.034652293 0.03497547
0000a0 24 43 91 bc 37 b7 6f bb 2f 69 5c bd 96 12 2a bd
       -0.01773221 -0.003657771 -0.05381125 -0.04152163
0000b0 10 8a ff bc a7 37 27 bd 21 0b bf bc 43 b7 9e 3d
       -0.031193763 -0.04082456 -0.023320736 0.07749798
0000c0 48 45 bc 3b a1 8e ca bd 9d 9a e1 bc 55 af 9f bc
       0.0057455637 -0.098904856 -0.027539546 -0.019492785
0000d0 d6 07 04 be f8 db 4a 3c 6e c9 ce bc 76 13 ac bd
       -0.12893614 0.012381546 -0.025242534 -0.084021494
0000e0 3a 4a 09 3d 7c 83 42 bc 5e d2 71 b9 82 5d 4b bd
       0.033518054 -0.011872169 -0.00023061919 -0.049649723
0000f0 8e a3 cf bc 18 21 1b 3d 0b 19 67 bd be b7 18 bd
       -0.025346544 0.037873358 -0.056420367 -0.037284605
000100 55 c2 99 bb d0 81 28 bd 5f c9 ea bc cf bb 84 bc
       -0.0046923556 -0.041139424 -0.028660474 -0.016202835
000110 c9 d6 3a bd 15 17 3a bd 9d c4 79 bd 09 0a cb bc
       -0.04561499 -0.04543217 -0.06097852 -0.024785059
000120 b5 bf 00 bd dc f4 5b 3d 3b 19 13 3d 98 2a 4f bd
       -0.031432826 0.053700313 0.035912734 -0.05057773
000130 82 39 17 bc d9 5b 59 bd b8 c5 bf bd 1b 89 98 3a
       -0.0092300195 -0.05306611 -0.09363884 0.001163754
000140 d5 f9 19 bd 54 97 a6 3a 4d b1 d2 bc 38 13 0a bd
       -0.037591774 0.0012709894 -0.02571931 -0.033709735
000150 bc 98 fb 3b 4f d6 80 bc f0 c0 a6 bc d1 7c e0 bd
       0.0076781195 -0.01572719 -0.020355672 -0.10961307
000160 5b 39 82 bd 8b b2 2f 3d a1 df fd bc 3b 61 9c bd
       -0.06358596 0.04289488 -0.030990424 -0.07635733
000170 fc 73 8c 3d 5a c8 8c bd ae d9 53 bd 0b 52 bb bd
       0.0685806 -0.068741515 -0.051721267 -0.09146508
000180 bd 70 20 bc 8a be 29 bd a0 df f5 bd bb 4e 87 bb
       -0.009792504 -0.041441478 -0.12005544 -0.0041292585
000190 b9 34 15 bd 19 c8 3b bc b3 39 b1 bd 88 ee 89 3c
       -0.036427233 -0.011461281 -0.086535834 0.016837373
0001a0 1c cb 11 bd 14 9a f6 bc cb af 38 bc 47 34 d4 bc
       -0.03559409 -0.030102767 -0.011272381 -0.025903834
0001b0 92 29 a2 bb 15 93 b1 bc 8f b7 10 bd c5 f9 86 bd
       -0.004948803 -0.02167658 -0.035331305 -0.065906085
0001c0 3a 5e a5 bd f5 b0 7f 3d ec 86 57 bd e8 72 bb bd
       -0.08074613 0.06242462 -0.052618906 -0.09152776
0001d0 ff c5 d7 3c 4b 37 ee 3b f7 61 10 bd 6f 8c b6 bd
       0.02633953 0.007269775 -0.035249677 -0.08913504
0001e0 1b 70 41 bd fc 94 a4 3d f9 70 50 bc cf cc 9e bd
       -0.047226053 0.08036229 -0.012722247 -0.07753908
0001f0 d8 34 09 bd 57 fe 22 bc 0f 45 74 bd 18 31 c2 b9
       -0.03349766 -0.009948335 -0.059636172 -0.0003703914

sequential/conv2d/BiasAdd/ReadVariableOp f4 [32]
000000 52 43 df bb 5e d6 11 bd 75 a6 81 3c 28 ab ca 3c
       -0.006813445 -0.035604827 0.015826443 0.024739817
000010 6f c6 ca 3b a8 1a 53 3c 36 24 50 bb 54 d7 52 bb
       0.006188206 0.012884773 -0.0031759865 -0.0032171803
000020 0e f5 c1 3b c7 9b 79 3b b2 c5 56 bc f9 92 ce bb
       0.0059191054 0.0038087235 -0.013108658 -0.0063041416
000030 c2 60 80 3c 31 c2 b1 3b 65 25 6e bd b8 95 ec bc
       0.015671138 0.0054247607 -0.05814113 -0.028879985
000040 89 ae 34 3b c0 33 54 bc 90 1c 0c bd 50 65 df bc
       0.0027569851 -0.012951791 -0.034206927 -0.02726999
000050 cc 71 b6 3a 05 96 1f 3b 7b c9 30 3c d6 90 0b 3d
       0.0013919412 0.0024350893 0.010790224 0.034073673
000060 0b 50 9b 3b 33 d1 73 3c 17 6a dc 3b c6 0e 95 3c
       0.0047397665 0.01488142 0.006726514 0.018195521
000070 9c a1 8e bd 60 83 fa 3a b7 2d 77 3c 88 04 e0 39
       -0.06964418 0.0019112639 0.015086583 0.00042727985

sequential/conv2d_1/BiasAdd/ReadVariableOp f4 [32]
000000 7c d7 70 bc f2 84 25 bc 16 5a 94 3c 31 0c 16 bd
       -0.014699813 -0.010102497 0.018109363 -0.03663272
000010 bc 8b ac bc 42 2f 29 3d 1b 07 7f bc 90 1a dc 39
       -0.021062724 0.041304834 -0.015565659 0.0004198146
000020 e2 b6 de 3b 3b 66 42 3c 0e ca fd 3b bb b2 c1 bc
       0.0067967037 0.011865194 0.007745034 -0.023644796
000030 39 2b 58 bb 86 51 a2 3c db 49 0c 3c ef 40 a9 3c
       -0.0032984747 0.019814264 0.00856253 0.020660846
000040 9e 8a 57 3c 60 32 58 3c 49 c2 34 bc 59 10 4a 3d
       0.0131556075 0.013195604 -0.011032649 0.049331997
000050 d7 e0 a3 3b 30 86 10 3d ba 33 10 bc 5e 3c 61 3d
       0.005001168 0.03528422 -0.008801395 0.05498921
000060 2f 89 1c bd f8 97 3d 3d ae 06 1a 3d d6 be f9 3c
       -0.038216766 0.046287507 0.037604026 0.030486505
000070 fa f2 0f 3d 44 bc 6d 3c 65 8b 17 3c ca d2 20 bc
       0.03514383 0.014510218 0.009249543 -0.009815881

sequential/conv2d_2/BiasAdd/ReadVariableOp f4 [64]
000000 fc 35 cf 3b 1b 69 1c 3d 18 27 55 3b 3c c2 48 bc
       0.006323574 0.038186174 0.0032524522 -0.01225334
000010 a9 3c 09 bb c0 0a 34 bd 0f ac 36 3d 4e f0 15 3d
       -0.0020940697 -0.043955564 0.04459768 0.036606126
000020 6b 17 7e 3c 07 c8 93 3c da ff 5c 3d 03 d9 78 3b
       0.015508513 0.018039716 0.053954937 0.0037971146
000030 8b 1a 50 3d bc ea 9c 3b d8 6c f8 3c a5 e1 d3 bb
       0.050806563 0.0047887247 0.030325338 -0.006466108
000040 3b 0f 9b bc f3 53 27 bc 4d f1 01 bc 28 06 16 3c
       -0.01892816 -0.010212886 -0.007931066 0.009156741
000050 0c 32 70 3c 46 2c 83 3d 79 06 e3 bc b9 d1 ca 3c
       0.01466037 0.06404929 -0.027713047 0.024758207
000060 b4 6a e5 bc 73 99 c7 3c 43 a9 e6 3c 51 21 28 bb
       -0.028004982 0.024365162 0.028156882 -0.0025654624
000070 34 ef 75 3b c6 fd 85 3c 1a 02 3d 3d bf d1 14 3c
       0.003752661 0.01635636 0.046144582 0.0090832105
000080 68 78 c2 38 8c f6 26 bb 5c 74 bf 3c 84 dd 3c 3c
       9.273068e-05 -0.0025476543 0.023370914 0.011527423
000090 35 57 b7 3b 1b 61 f9 3c e8 12 09 bd db e4 fb ba
       0.0055951127 0.030441811 -0.033465296 -0.0019217985
0000a0 95 29 97 3a 34 00 4e bc fb 2a 0b 3d 4e 25 53 bb
       0.0011532778 -0.012573291 0.033976536 -0.003221828
0000b0 3d b8 1d bc db 0a 4e bd 9f 5b 91 3c a4 98 b4 3c
       -0.009626445 -0.05030332 0.017743884 0.022045441
0000c0 35 ce 49 bc cb 83 40 3c b4 f2 00 3b a6 68 5b bc
       -0.01231723 0.011750172 0.0019675912 -0.013391649
0000d0 8c 44 11 3d b6 09 03 3c da 93 42 3c c6 6d 64 3c
       0.035465762 0.007997921 0.011876071 0.013942188
0000e0 72 22 37 bd 68 17 9c 3c a5 1d 7d 3c 2f 9d 2b bc
       -0.044710584 0.01905413 0.015448962 -0.010474487
0000f0 f0 e4 4c bc 5c d3 85 b9 d3 6f 1b 3b 1c 80 3f 3b
       -0.012505755 -0.00025525212 0.0023717775 0.0029220646

sequential/conv2d_3/BiasAdd/ReadVariableOp f4 [64]
000000 03 a1 2f bb 1e a3 bc 3b 02 d4 18 3d 74 b0 ea 3b
       -0.0026798851 0.00575675 0.03731156 0.007162148
000010 50 b0 6b bd 43 93 4f bc 45 25 0d bc f5 bf 36 3d
       -0.05754119 -0.012669387 -0.008614843 0.04461666
000020 bb 7f be bb 76 ae f9 bb a7 24 ca bc 95 c3 53 bc
       -0.0058135665 -0.0076196743 -0.02467568 -0.012925048
000030 cd b0 89 bc 80 5a 0e bd 09 c0 07 bb 08 b2 57 3c
       -0.016807938 -0.034754276 -0.0020713827 0.013165005
000040 bc cc 6d bc fb 7c 3e bb ce e2 2f bc 1d 75 6e 3c
       -0.0145141445 -0.0029066193 -0.010735227 0.014554289
000050 16 2c c5 bb 90 b1 de bb f8 02 96 bc ac ec cf 3c
       -0.0060172183 -0.0067960694 -0.018311962 0.025381409
000060 f4 3b ad 3c 0b cd 8d bd 5a b0 b0 bc 2a b2 fe 3c
       0.021146752 -0.069238745 -0.021568466 0.031090815
000070 49 fc 32 bd c6 29 5d bc a2 da ea bc 19 01 eb bc
       -0.04369763 -0.013498729 -0.028668705 -0.028687047
000080 46 6c b2 bc 73 d5 6d 3c 53 33 92 3c 84 a7 92 bd
       -0.021780144 0.014516222 0.017846739 -0.07160857
000090 6c ff 37 bc 0e 1d c0 3b 58 60 fe 3c 40 c9 91 3b
       -0.011230331 0.0058628386 0.0310518 0.0044490397
0000a0 c4 bc 0f 3d 0d b7 93 3b 83 55 1d bc 47 de 36 3c
       0.03509213 0.0045079053 -0.009602907 0.0111613935
0000b0 46 74 4c 3d 5d 73 a8 bc c3 93 0c bd fb 4a 00 bd
       0.049915574 -0.020562822 -0.034320604 -0.031321507
0000c0 ba 31 5b bd de ef 93 3c 5f 56 d4 bc 52 80 3c bc
       -0.05351422 0.018058714 -0.025920091 -0.011505203
0000d0 32 50 0a bd 30 9c 4f bd c9 97 b7 3b cc 7e b7 3c
       -0.033767886 -0.05068606 0.005602811 0.022399329
0000e0 9a 46 ba bc b5 b4 c8 3c 82 47 9b 3b 17 3f ce bc
       -0.022738744 0.02450023 0.004738749 -0.025176568
0000f0 70 2e 3e bb 74 7f 87 bb 98 e9 f1 3b 82 f1 b5 bc
       -0.0029019378 -0.0041350666 0.007382583 -0.022209886

sequential/conv2d/Conv2D f4 [32, 5, 5, 1]
000000 17 d9 5f 3c 0b 60 e1 3b 54 fb 8c bd 9e 7a 25 be
       0.013662598 0.0068779043 -0.068838745 -0.16160056
000010 09 e1 91 3d c5 eb 90 3c ba b7 58 3c 6c fa d4 bd
       0.07123 0.017690549 0.013227398 -0.10399327
000020 4d 8a 57 3d 1a e3 c9 3d ba f3 8c bd 8b cb 3b bd
       0.05262213 0.09857769 -0.06882425 -0.04584841
000030 95 79 3d 3d 03 47 26 3d 35 fd 4b 3c 3a c8 fe bc
       0.046258528 0.040595066 0.012450506 -0.031101335
000040 e6 c8 14 3d e3 38 ac 3d 53 89 8c 3d 26 69 d8 bd
       0.036324404 0.08409288 0.0686213 -0.105669305
000050 fa a7 26 bd 40 9d 7c bd 0e 32 6d bd 35 69 cc bd
       -0.04068754 -0.061673403 -0.057909064 -0.09981004
000060 6b 1b 01 3d 80 d5 c3 3d db 68 08 bd 8b ae ab 3c
       0.03152029 0.09562206 -0.033303123 0.020957252
000070 94 29 da bc 80 99 40 3d b7 9d 4f bd d8 7d 34 be
       -0.026631154 0.04702139 -0.050687518 -0.1762613
000080 83 69 f4 3c a3 69 8c bc f6 bd 6f bb 60 97 7e 3d
       0.029835468 -0.017140215 -0.0036581731 0.06215608
000090 af 92 c6 bc af e5 20 3c df 59 8d bd e3 f2 18 3d
       -0.024239866 0.009820386 -0.06901907 0.03734101
0000a0 fa 93 47 3d e8 27 1f 3d 95 f0 ca 3c 26 33 98 bd
       0.048725106 0.038856417 0.024772922 -0.07431631
0000b0 6a 6b 69 3d 56 2b 07 be cb 72 b9 3b c5 da 8a bd
       0.056987204 -0.13200125 0.0056594363 -0.06780008
0000c0 36 b9 50 bd c6 0d 18 bd 63 16 c8 3c 12 10 1b be
       -0.05095788 -0.03712251 0.024424737 -0.15142849
0000d0 37 f5 48 bd 95 50 cb bd e0 2c 7a be 78 02 f4 3c
       -0.04906198 -0.09927479 -0.24431181 0.029786333
0000e0 3d b5 96 bd 76 0a 6f bc d1 b5 d6 3c 00 7a aa bd
       -0.07358787 -0.014589896 0.026209744 -0.08324051
0000f0 90 22 85 bb 1d b3 83 3d 8e e7 5d 3b 22 b6 16 3e
       -0.004062958 0.064306475 0.0033859941 0.14717916
000100 ac 55 e5 3d f6 1c 01 bd ac 54 43 b9 2d 74 c0 bd
       0.11197981 -0.03152176 -0.00018628192 -0.09397159
000110 6f 7e 49 bd 98 20 d3 bc d8 18 b7 bc 11 fa 54 3c
       -0.049192842 -0.025772378 -0.022350714 0.012999074
000120 0f 9f 05 bd 20 24 ec bc ae c9 4b bc 73 84 79 3c
       -0.032622393 -0.02882582 -0.012438221 0.015229332
000130 69 a0 9d bd 1d 21 bd be 30 11 13 bf 0f 01 12 bf
       -0.076966114 -0.36939326 -0.574481 -0.57032865
000140 dd 86 26 3d 61 f0 ad 3d e5 51 f1 3d 2c f4 84 bd
       0.04065596 0.08493114 0.11783198 -0.064918846
000150 d3 53 39 3c 47 b0 e1 bd 09 e0 d4 bc 02 d6 c5 bd
       0.011311489 -0.1101995 -0.025985735 -0.096599594
000160 e0 b7 ae be 28 6f af be 40 8e 3e bd cb be a8 3d
       -0.3412466 -0.34264493 -0.04652238 0.08239516
000170 af 22 a6 bc 27 04 1e 3d 51 98 84 be f4 f4 d9 3d
       -0.02028021 0.03857818 -0.25897458 0.10642424
000180 27 8a 3f 3d c2 82 5a bd f0 2f d7 bc 27 62 ef bd
       0.04676261 -0.053347357 -0.026267976 -0.11688643
000190 70 f9 10 3d 99 22 69 bc a9 d2 7c bd 57 46 bc 3d
       0.035394132 -0.01422944 -0.06172434 0.09193104
0001a0 08 05 43 bc 3a b4 4f 3d 1b 23 39 3c d4 32 7a 3d
       -0.011903055 0.050708987 0.011299874 0.06108363
0001b0 b2 a5 db bc 2d 55 f9 3d 30 68 bf bd ae b9 99 3d
       -0.026812408 0.12174449 -0.09346044 0.07506119
0001c0 13 9f 0e 3e 59 3d ce bc d4 9d da bd eb 90 fd bd
       0.1392787 -0.025175737 -0.106746346 -0.123811565
0001d0 2e ff 0e be 08 ba 07 be 06 fd 51 be b0 c0 e8 bd
       -0.13964531 -0.13254559 -0.20506677 -0.11364877
0001e0 00 7d 01 bd b2 fe 3a be 7e d2 db bd fb 5d 9c 3d
       -0.03161335 -0.18261221 -0.107335076 0.07635113
0001f0 f2 4d 9c 3d 03 8e 5d 3d 59 30 9b bd 5d d9 36 3d
       0.076320544 0.05409051 -0.07577581 0.044640888
000200 2c 40 00 3e 7c 7d 95 3c d4 84 ae 3d 0e bb db bc
       0.1252448 0.018248312 0.08521429 -0.026822593
000210 46 03 c7 3c 31 d7 7e bd 87 04 00 be ce 88 4f bd
       0.024293553 -0.06221694 -0.12501727 -0.050667576
000220 bc a1 33 3d e9 a1 f7 3c 23 9d ad 3d d3 c5 06 3d
       0.043855414 0.030228572 0.08477237 0.032903504
000230 9d 96 88 bd 23 19 c2 bb 3c b3 38 3d 6c d5 8c 3d
       -0.06669352 -0.0059234067 0.045092806 0.068766445
000240 64 ac 97 bd e9 3b b4 bd 5b 79 99 bd 4d 25 95 bc
       -0.07405928 -0.088004895 -0.0749385 -0.018206263
000250 ed 5f 26 bd e6 a3 24 be cc a0 89 ba 02 41 14 be
       -0.040618826 -0.16078147 -0.0010500192 -0.14477924
000260 0b e7 06 bf c3 71 c9 bd 4e 70 3d be c5 b8 10 3d
       -0.52696294 -0.098361515 -0.18499872 0.03533246
000270 34 4b 56 be 4c 12 a1 be a8 e9 f3 bd 11 eb bb bd
       -0.20927125 -0.31459272 -0.11909801 -0.09175695
000280 23 7a c6 bd e9 d7 08 be 4c 5a fa bd 6d 9a 08 3e
       -0.096912645 -0.13363613 -0.12224254 0.13340159
000290 5d 1b 15 bc 3d f0 c6 3c 49 49 53 3d 9c 2d 25 3d
       -0.009100762 0.024284476 0.051583562 0.0403267
0002a0 5b 2a cd 3d d2 fb 87 3a b9 98 cf 3c 47 7e 34 3d
       0.10017844 0.0010374731 0.025341379 0.04406574
0002b0 91 08 0d 3d 6e 25 bd bd ca 75 dc bd fb 31 86 be
       0.034431998 -0.09235655 -0.10764654 -0.26210007
0002c0 e1 2e f0 bd 10 11 12 3d 4e 59 ac bd 0a 1a 30 be
       -0.117276914 0.035660803 -0.08415471 -0.17197433
0002d0 43 4a 08 bd df 03 8e bc a3 60 01 3e b2 a8 a9 3d
       -0.033273946 -0.01733583 0.1263452 0.08284129
0002e0 24 c7 57 bd 52 8b 86 bc a2 6a 7f bd 6f b2 d7 bd
       -0.05268015 -0.016423855 -0.062357552 -0.105320804
0002f0 b7 1a e1 3d cc 42 73 3d a8 34 a0 3c 6e 73 d0 bd
       0.109914236 0.059389874 0.019556358 -0.101782665
000300 36 5f 8b bd a9 e4 9d bd 57 f2 65 3c 71 21 87 3c
       -0.068052694 -0.07709629 0.014034829 0.016495438
000310 2d 16 68 3d 89 62 de bc 44 ba f1 3c 12 79 b8 3c
       0.056661773 -0.027146595 0.029507764 0.022518668
000320 e1 c5 36 3d 05 79 97 bd e3 d2 42 3d 54 e9 ea 3d
       0.044622306 -0.073961295 0.0475644 0.11470285
000330 82 86 3a 3d 71 84 64 bd 81 8e cc bb bf e1 8b bd
       0.045538433 -0.05579037 -0.0062425737 -0.06830167
000340 b6 38 d3 bd 27 d4 25 bd 9f de e9 bd 0c e2 cd bc
       -0.10313551 -0.040485527 -0.11419415 -0.025132202
000350 fe 82 10 be 8f df 33 be a2 6f f8 bd 01 1e b8 3d
       -0.1411247 -0.1756575 -0.12130667 0.08990098
000360 9c 1c c2 3d 4f 4a 9b 3c 1e 73 06 3e 61 7d 49 3d
       0.09478113 0.018956332 0.13129851 0.049191836
000370 2e ab 1d 3d 77 82 fc 3c dd b9 8f 3d cb 3b 44 3c
       0.038493328 0.03082393 0.070178725 0.011977146
000380 1e 16 0e 3c b1 93 31 3b 79 ae ac 3d 27 75 e6 bc
       0.008672265 0.0027096088 0.084317155 -0.028132034
000390 20 82 09 bd 15 10 23 be 98 67 b6 bd fb 21 e8 3d
       -0.033571362 -0.15924104 -0.08906478 0.11334606
0003a0 06 95 12 be 45 73 b8 3d b1 71 f1 bd 73 64 a1 3c
       -0.1431466 0.09006361 -0.11789263 0.019701218
0003b0 fd 85 3d bb 17 52 aa bd c8 fd af 3d 64 0e d6 bd
       -0.0028918975 -0.08316439 0.08593327 -0.104519635
0003c0 df c1 20 bb 26 fc aa 3d 85 b2 92 bd 21 d1 fd 3d
       -0.0024529619 0.08348875 -0.07162956 0.12393404
0003d0 79 46 76 bd d3 da cd bd e0 da dd 3b 3b 14 a0 3c
       -0.0601258 -0.10051503 0.0067704767 0.019540897
0003e0 69 35 9b 3d 20 63 b0 bd 45 75 90 3d 41 37 8d 3d
       0.075785466 -0.086126566 0.070536174 0.068953045
0003f0 2e 54 f9 bd 5b 61 0a be 93 b0 8c bd 78 4f 89 3d
       -0.12174259 -0.135137 -0.06869616 0.067046106

sequential/conv2d_1/Conv2D i1 [32, 5, 5, 32]
000000 ea 06 ee 0e 37 0a 15 e2 2b f6 ce 0b cb 0e d5 dc
       -22 6 -18 14 55 10 21 -30 43 -10 -50 11 -53 14 -43 -36
000010 21 20 40 10 d4 d4 23 f0 ea 25 20 ec da 06 04 f6
       33 32 64 16 -44 -44 35 -16 -22 37 32 -20 -38 6 4 -10
000020 dc 28 e1 0f 17 08 e8 fb 31 f9 09 f7 f3 06 d4 11
       -36 40 -31 15 23 8 -24 -5 49 -7 9 -9 -13 6 -44 17
000030 fa 25 1f 2e 0b 1b df 05 08 fe 32 f1 f0 2c 0f f0
       -6 37 31 46 11 27 -33 5 8 -2 50 -15 -16 44 15 -16
000040 0b 05 c5 f1 1b ff f5 ef 3a f6 28 fd f6 fa 0c 02
       11 5 -59 -15 27 -1 -11 -17 58 -10 40 -3 -10 -6 12 2
000050 f7 17 ff 1c f3 e4 e8 22 08 f4 00 d3 e3 18 24 0b
       -9 23 -1 28 -13 -28 -24 34 8 -12 0 -45 -29 24 36 11
000060 04 04 bb f8 2f eb ee d4 37 01 0b e9 f8 03 e6 01
       4 4 -69 -8 47 -21 -18 -44 55 1 11 -23 -8 3 -26 1
000070 e8 28 f3 f0 f8 f4 fe 02 e0 0a ee c8 e3 08 0e 15
       -24 40 -13 -16 -8 -12 -2 2 -32 10 -18 -56 -29 8 14 21
000080 f9 10 b4 18 18 f3 17 0b 31 1d 15 e0 d8 f7 09 05
       -7 16 -76 24 24 -13 23 11 49 29 21 -32 -40 -9 9 5
000090 fb 1c 0f dd ef e1 f7 22 ed 19 0a c6 e9 dc 38 3e
       -5 28 15 -35 -17 -31 -9 34 -19 25 10 -58 -23 -36 56 62
0000a0 cd e6 f7 10 14 ed 07 de 00 07 d2 06 e4 1b d9 19
       -51 -26 -9 16 20 -19 7 -34 0 7 -46 6 -28 27 -39 25
0000b0 f2 f7 13 0e df d1 05 0b db 1c e9 e3 f6 d5 31 ea
       -14 -9 19 14 -33 -47 5 11 -37 28 -23 -29 -10 -43 49 -22
0000c0 b7 e5 e9 0f f9 fa 0b f2 ff ee eb ee f4 03 ed 10
       -73 -27 -23 15 -7 -6 11 -14 -1 -18 -21 -18 -12 3 -19 16
0000d0 b3 0f d3 17 d1 fe e8 f9 e9 fe e6 f6 08 05 29 cd
       -77 15 -45 23 -47 -2 -24 -7 -23 -2 -26 -10 8 5 41 -51
0000e0 cf f1 da 19 1f cb 2c f5 00 d4 ef 03 f8 18 06 20
       -49 -15 -38 25 31 -53 44 -11 0 -44 -17 3 -8 24 6 32
0000f0 a0 20 f0 f0 e7 d6 e3 02 d4 f5 ba fc fd ef 20 e7
       -96 32 -16 -16 -25 -42 -29 2 -44 -11 -70 -4 -3 -17 32 -25

sequential/conv2d_2/Conv2D i1 [64, 3, 3, 32]
000000 e8 05 29 cc ee e2 e4 af f4 36 d1 1e d9 c2 00 e8
       -24 5 41 -52 -18 -30 -28 -81 -12 54 -47 30 -39 -62 0 -24
000010 cc 1b c8 e6 e1 1c b6 dd 18 0e e2 f4 35 1e 13 f5
       -52 27 -56 -26 -31 28 -74 -35 24 14 -30 -12 53 30 19 -11
000020 15 07 41 ec 2e 31 e8 d3 d6 0d da 33 1f e6 f8 21
       21 7 65 -20 46 49 -24 -45 -42 13 -38 51 31 -26 -8 33
000030 f9 f2 f7 12 e8 0f e2 21 f7 37 4f 1c dc 34 f1 26
       -7 -14 -9 18 -24 15 -30 33 -9 55 79 28 -36 52 -15 38
000040 0f ed 37 9b ad 0a b6 22 00 14 eb ec e4 e0 ec 1a
       15 -19 55 -101 -83 10 -74 34 0 20 -21 -20 -28 -32 -20 26
000050 fe f8 32 14 e8 16 d2 ea e0 c3 ed d1 04 17 15 f0
       -2 -8 50 20 -24 22 -46 -22 -32 -61 -19 -47 4 23 21 -16
000060 f8 04 d3 25 87 15 ea f7 de 2d 18 bb e9 ec e0 2e
       -8 4 -45 37 -121 21 -22 -9 -34 45 24 -69 -23 -20 -32 46
000070 ec 22 d7 20 ef 07 cd ec ee ed a5 19 0e b8 db c3
       -20 34 -41 32 -17 7 -51 -20 -18 -19 -91 25 14 -72 -37 -61
000080 ff d3 e0 03 19 e2 e9 13 f5 1a ea dd fa 24 f7 22
       -1 -45 -32 3 25 -30 -23 19 -11 26 -22 -35 -6 36 -9 34
000090 0b ff 2b 2a f1 18 0d f3 c9 34 43 0d 23 d0 bd 90
       11 -1 43 42 -15 24 13 -13 -55 52 67 13 35 -48 -67 -112
0000a0 f5 ba 1f 02 cf 1b f3 5c 1e fc 2b c4 10 0d 2f e6
       -11 -70 31 2 -49 27 -13 92 30 -4 43 -60 16 13 47 -26
0000b0 16 c4 0a 0f 14 d4 e2 d3 f0 07 1b f5 d6 c6 1a da
       22 -60 10 15 20 -44 -30 -45 -16 7 27 -11 -42 -58 26 -38
0000c0 e1 e6 d1 0e c5 9a e8 f6 cd f3 0d 01 1c d0 39 39
       -31 -26 -47 14 -59 -102 -24 -10 -51 -13 13 1 28 -48 57 57
0000d0 40 db e6 e6 12 f3 e0 15 06 ee 0f 21 a0 16 b9 ec
       64 -37 -26 -26 18 -13 -32 21 6 -18 15 33 -96 22 -71 -20
0000e0 2e d2 df 0f cd 81 f0 14 ff ec 38 24 1d e7 21 14
       46 -46 -33 15 -51 -127 -16 20 -1 -20 56 36 29 -25 33 20
0000f0 e6 ca 37 1b 0e 10 18 f3 07 d1 f8 fa c4 09 f8 13
       -26 -54 55 27 14 16 24 -13 7 -47 -8 -6 -60 9 -8 19

sequential/conv2d_3/Conv2D i1 [64, 3, 3, 64]
000000 02 19 23 ce dc de 21 d5 de fc 1b f1 3b 23 08 0a
       2 25 35 -50 -36 -34 33 -43 -34 -4 27 -15 59 35 8 10
000010 13 11 d3 03 0f 04 26 10 11 2c 04 1d 00 18 23 07
       19 17 -45 3 15 4 38 16 17 44 4 29 0 24 35 7
000020 4d 11 56 4a 13 45 0d 1a d6 a8 06 0a 19 30 f3 fd
       77 17 86 74 19 69 13 26 -42 -88 6 10 25 48 -13 -3
000030 03 06 14 36 d0 0d fd 01 2d ef b9 f8 b5 1e d2 db
       3 6 20 54 -48 13 -3 1 45 -17 -71 -8 -75 30 -46 -37
000040 f4 3f ed f8 e1 e4 c6 15 d6 21 ee 16 f5 ec 20 fb
       -12 63 -19 -8 -31 -28 -58 21 -42 33 -18 22 -11 -20 32 -5
000050 2f e9 c6 02 f9 db e7 dc ea 1b f3 12 eb 15 52 28
       47 -23 -58 2 -7 -37 -25 -36 -22 27 -13 18 -21 21 82 40
000060 06 2b 44 10 2d 18 1d f3 17 f9 f6 e6 01 42 2c 15
       6 43 68 16 45 24 29 -13 23 -7 -10 -26 1 66 44 21
000070 f9 bd ee 07 fa 0b 22 b9 0a f7 06 e0 db 26 d9 42
       -7 -67 -18 7 -6 11 34 -71 10 -9 6 -32 -37 38 -39 66
000080 f5 f2 d7 34 ca 24 e6 21 0f e7 08 25 28 f0 17 16
       -11 -14 -41 52 -54 36 -26 33 15 -25 8 37 40 -16 23 22
000090 b2 e6 05 f2 2e 0c 05 f0 c0 1b 16 1b 02 dd f5 db
       -78 -26 5 -14 46 12 5 -16 -64 27 22 27 2 -35 -11 -37
0000a0 43 16 ff 41 1c d6 e9 15 0d 2a 45 95 0a 08 f4 15
       67 22 -1 65 28 -42 -23 21 13 42 69 -107 10 8 -12 21
0000b0 f5 05 dd 28 4a fc bc d9 e8 d8 2b ef f7 05 25 18
       -11 5 -35 40 74 -4 -68 -39 -24 -40 43 -17 -9 5 37 24
0000c0 de 1f 40 10 06 2c f7 04 20 02 2d 1b d7 45 00 01
       -34 31 64 16 6 44 -9 4 32 2 45 27 -41 69 0 1
0000d0 e5 ff 5a cf 37 fc 1d 08 e5 22 59 15 39 0c ef ea
       -27 -1 90 -49 55 -4 29 8 -27 34 89 21 57 12 -17 -22
0000e0 e7 01 cc 10 ea fe d2 e4 f7 16 fc 46 f7 da ef f3
       -25 1 -52 16 -22 -2 -46 -28 -9 22 -4 70 -9 -38 -17 -13
0000f0 0f ca 3d 38 1f 55 22 f4 33 d2 a4 f6 a0 21 ec 0b
       15 -54 61 56 31 85 34 -12 51 -46 -92 -10 -96 33 -20 11

sequential/dense/MatMul i1 [128, 576] scale=0.0037579045 zero_point=0
000000 dc 1d ff f5 f2 e5 e5 fc fc 37 03 ec 39 24 29 f9
       -0.13528456 0.10897923 -0.0037579045 -0.04133695 -0.05261066 -0.10146342 -0.10146342 -0.015031618 -0.015031618 0.20668475 0.011273714 -0.07515809 0.21420056 0.13528456 0.15407409 -0.02630533
000010 10 f8 05 3a 10 0e da 0d 05 f1 1a f9 18 00 34 03
       0.060126472 -0.030063236 0.018789522 0.21795847 0.060126472 0.05261066 -0.14280038 0.04885276 0.018789522 -0.056368567 0.09770552 -0.02630533 0.09018971 0.0 0.19541104 0.011273714
000020 06 e9 e6 0b 1a e9 19 d8 02 22 14 dd 17 17 2a 0b
       0.022547428 -0.0864318 -0.09770552 0.04133695 0.09770552 -0.0864318 0.09394761 -0.15031618 0.007515809 0.12776875 0.07515809 -0.13152666 0.0864318 0.0864318 0.157832 0.04133695
000030 fe 13 f4 07 0d e0 dc f9 c2 ed de 1f fe 19 f6 1c
       -0.007515809 0.07140019 -0.045094855 0.02630533 0.04885276 -0.120252945 -0.13528456 -0.02630533 -0.23299009 -0.07140019 -0.12776875 0.11649504 -0.007515809 0.09394761 -0.037579045 0.10522132
000040 eb 43 e8 13 1d 08 e5 df 03 ec e0 f5 37 c7 2c e3
       -0.078916 0.25177962 -0.09018971 0.07140019 0.10897923 0.030063236 -0.10146342 -0.124010846 0.011273714 -0.07515809 -0.120252945 -0.04133695 0.20668475 -0.21420056 0.1653478 -0.10897923
000050 e2 1c f5 fc ff ef f3 04 01 12 17 09 e6 21 07 27
       -0.112737134 0.10522132 -0.04133695 -0.015031618 -0.0037579045 -0.06388438 -0.04885276 0.015031618 0.0037579045 0.06764228 0.0864318 0.03382114 -0.09770552 0.124010846 0.02630533 0.14655827
000060 06 0d fb 12 12 dc 20 06 da f1 07 15 12 2d ef 01
       0.022547428 0.04885276 -0.018789522 0.06764228 0.06764228 -0.13528456 0.120252945 0.022547428 -0.14280038 -0.056368567 0.02630533 0.078916 0.06764228 0.16910571 -0.06388438 0.0037579045
000070 19 eb 14 0b f9 04 06 e5 08 ec 0b 02 0a 1d 2b 11
       0.09394761 -0.078916 0.07515809 0.04133695 -0.02630533 0.015031618 0.022547428 -0.10146342 0.030063236 -0.07515809 0.04133695 0.007515809 0.037579045 0.10897923 0.16158989 0.06388438
000080 de 05 3c 30 13 22 13 4f 13 fe c0 0a ee f1 0f 1f
       -0.12776875 0.018789522 0.22547427 0.18037942 0.07140019 0.12776875 0.07140019 0.29687446 0.07140019 -0.007515809 -0.24050589 0.037579045 -0.06764228 -0.056368567 0.056368567 0.11649504
000090 db 0a 09 e1 47 09 f2 fd 0b e6 12 e0 ea 0d 2d 0a
       -0.13904247 0.037579045 0.03382114 -0.11649504 0.26681122 0.03382114 -0.05261066 -0.011273714 0.04133695 -0.09770552 0.06764228 -0.120252945 -0.0826739 0.04885276 0.16910571 0.037579045
0000a0 2c 09 fe f5 1f 01 f4 fd 1f fb f7 24 52 45 e0 19
       0.1653478 0.03382114 -0.007515809 -0.04133695 0.11649504 0.0037579045 -0.045094855 -0.011273714 0.11649504 -0.018789522 -0.03382114 0.13528456 0.30814818 0.2592954 -0.120252945 0.09394761
0000b0 29 13 09 f0 fe e7 5b fd e6 d8 fd f3 df 08 ce e4
       0.15407409 0.07140019 0.03382114 -0.060126472 -0.007515809 -0.09394761 0.3419693 -0.011273714 -0.09770552 -0.15031618 -0.011273714 -0.04885276 -0.124010846 0.030063236 -0.18789522 -0.10522132
0000c0 46 04 02 20 11 f8 09 09 17 19 ff f3 fd 28 f6 26
       0.26305333 0.015031618 0.007515809 0.120252945 0.06388438 -0.030063236 0.03382114 0.03382114 0.0864318 0.09394761 -0.0037579045 -0.04885276 -0.011273714 0.15031618 -0.037579045 0.14280038
0000d0 1e 05 18 22 0c f9 25 f8 1e 02 35 07 24 06 1c fa
       0.112737134 0.018789522 0.09018971 0.12776875 0.045094855 -0.02630533 0.13904247 -0.030063236 0.112737134 0.007515809 0.19916894 0.02630533 0.13528456 0.022547428 0.10522132 -0.022547428
0000e0 fa 03 ec 02 26 e6 26 ef f9 33 12 df 1f 09 3b ef
       -0.022547428 0.011273714 -0.07515809 0.007515809 0.14280038 -0.09770552 0.14280038 -0.06388438 -0.02630533 0.19165313 0.06764228 -0.124010846 0.11649504 0.03382114 0.22171636 -0.06388438
0000f0 d3 0a 09 ea 2c 06 db 1f e5 20 33 16 c5 14 0a ef
       -0.16910571 0.037579045 0.03382114 -0.0826739 0.1653478 0.022547428 -0.13904247 0.11649504 -0.10146342 0.120252945 0.19165313 0.0826739 -0.22171636 0.07515809 0.037579045 -0.06388438

sequential/dense_1/MatMul i1 [10, 128] scale=0.012378231 zero_point=0
000000 fc 06 12 f4 0e cb 14 1a e1 d2 ec 13 fd dc e3 db
       -0.049512923 0.074269384 0.22280815 -0.14853877 0.17329523 -0.6560462 0.24756461 0.321834 -0.38372517 -0.56939864 -0.24756461 0.23518638 -0.037134692 -0.4456163 -0.35896868 -0.45799452
000010 09 d4 f9 f3 0a d5 fd ff e6 f5 ee 14 e4 be e1 02
       0.111404076 -0.54464215 -0.086647615 -0.160917 0.12378231 -0.53226393 -0.037134692 -0.012378231 -0.321834 -0.13616054 -0.22280815 0.24756461 -0.34659046 -0.8169632 -0.38372517 0.024756461
000020 03 db f0 e8 e6 0c df f7 df 10 ea 0d f5 d8 01 c6
       0.037134692 -0.45799452 -0.19805169 -0.29707754 -0.321834 0.14853877 -0.4084816 -0.111404076 -0.4084816 0.19805169 -0.27232108 0.160917 -0.13616054 -0.49512923 0.012378231 -0.71793735
000030 11 e1 e5 c2 13 f8 be 0e be df eb ea 07 0f e1 09
       0.21042992 -0.38372517 -0.33421224 -0.76745033 0.23518638 -0.099025846 -0.8169632 0.17329523 -0.8169632 -0.4084816 -0.25994283 -0.27232108 0.086647615 0.18567346 -0.38372517 0.111404076
000040 00 09 0f f3 cb cc e7 f8 15 de fa de ba e7 d4 11
       0.0 0.111404076 0.18567346 -0.160917 -0.6560462 -0.643668 -0.30945575 -0.099025846 0.25994283 -0.42085984 -0.074269384 -0.42085984 -0.8664762 -0.30945575 -0.54464215 0.21042992
000050 e3 cd f1 d9 b9 eb 10 e1 0c f1 dc 00 db 81 10 f9
       -0.35896868 -0.6312898 -0.18567346 -0.482751 -0.8788544 -0.25994283 0.19805169 -0.38372517 0.14853877 -0.18567346 -0.4456163 0.0 -0.45799452 -1.5720353 0.19805169 -0.086647615
000060 ce b6 00 d2 f6 e0 d9 bc 01 ef fa c2 0b 01 e4 e4
       -0.6189115 -0.91598904 0.0 -0.56939864 -0.12378231 -0.39610338 -0.482751 -0.8417197 0.012378231 -0.21042992 -0.074269384 -0.76745033 0.13616054 0.012378231 -0.34659046 -0.34659046
000070 f6 d9 13 14 c2 d2 04 04 ef c3 0e 06 cf ff 0a b4
       -0.12378231 -0.482751 0.23518638 0.24756461 -0.76745033 -0.56939864 0.049512923 0.049512923 -0.21042992 -0.75507206 0.17329523 0.074269384 -0.6065333 -0.012378231 0.12378231 -0.94074553
000080 08 d6 dc f4 0b c6 d3 dc 0a fc 00 fc f0 e9 f3 e9
       0.099025846 -0.51988566 -0.4456163 -0.14853877 0.13616054 -0.71793735 -0.55702037 -0.4456163 0.12378231 -0.049512923 0.0 -0.049512923 -0.19805169 -0.28469932 -0.160917 -0.28469932
000090 fa 00 07 e5 ea 15 0e 0a 01 d3 10 c2 ed 10 13 e1
       -0.074269384 0.0 0.086647615 -0.33421224 -0.27232108 0.25994283 0.17329523 0.12378231 0.012378231 -0.55702037 0.19805169 -0.76745033 -0.23518638 0.19805169 0.23518638 -0.38372517
0000a0 c4 0e fc fb f1 d5 07 e5 14 08 ea f9 f0 07 fd 11
       -0.74269384 0.17329523 -0.049512923 -0.061891153 -0.18567346 -0.53226393 0.086647615 -0.33421224 0.24756461 0.099025846 -0.27232108 -0.086647615 -0.19805169 0.086647615 -0.037134692 0.21042992
0000b0 fd 05 d6 d9 df 04 06 ed da 10 17 cc f8 ce dd a4
       -0.037134692 0.061891153 -0.51988566 -0.482751 -0.4084816 0.049512923 0.074269384 -0.23518638 -0.47037277 0.19805169 0.28469932 -0.643668 -0.099025846 -0.6189115 -0.4332381 -1.1387973
0000c0 ec 13 07 0c fc ee 0c f1 04 f8 d5 de dd d4 0c 0f
       -0.24756461 0.23518638 0.086647615 0.14853877 -0.049512923 -0.22280815 0.14853877 -0.18567346 0.049512923 -0.099025846 -0.53226393 -0.42085984 -0.4332381 -0.54464215 0.14853877 0.18567346
0000d0 d8 c1 d5 e3 06 d7 d8 d9 c1 f2 e5 ef fd fe d2 c2
       -0.49512923 -0.77982855 -0.53226393 -0.35896868 0.074269384 -0.50750744 -0.49512923 -0.482751 -0.77982855 -0.17329523 -0.33421224 -0.21042992 -0.037134692 -0.024756461 -0.56939864 -0.76745033
0000e0 f3 cf e8 11 f9 08 fe 1b d2 de e6 10 e5 0b d0 ea
       -0.160917 -0.6065333 -0.29707754 0.21042992 -0.086647615 0.099025846 -0.024756461 0.33421224 -0.56939864 -0.42085984 -0.321834 0.19805169 -0.33421224 0.13616054 -0.5941551 -0.27232108
0000f0 e2 f3 c6 d3 f2 f1 af f0 e1 17 c8 04 01 df 19 a8
       -0.37134692 -0.160917 -0.71793735 -0.55702037 -0.17329523 -0.18567346 -1.0026367 -0.19805169 -0.38372517 0.28469932 -0.6931809 0.049512923 0.012378231 -0.4084816 0.30945575 -1.0892843
