McAndroidApp/app/src/main/ml/model2.tflite (tflite, 167056 bytes, 12 tensors)

sequential_1/dense_2/BiasAdd/ReadVariableOp f4 [128]
000000 87 b4 90 bd ea 02 75 bd 1c 4c 5e 3c 48 bd fb 3c
       -0.07065683 -0.059817232 0.013567951 0.030729905
000010 67 de 58 3c 56 99 7d bb ea 51 c7 ba fa 9a b3 bc
       0.013236619 -0.0038696132 -0.0015206907 -0.021924485
000020 0b ff ac bc 3e cb 28 3d 46 c1 fd bc 81 eb 0c be
       -0.021117708 0.04120945 -0.030975949 -0.13761713
000030 39 7c 0a bd 2d 1e 65 bd 17 a8 b9 bc 15 61 1c bd
       -0.033809874 -0.05593698 -0.02266316 -0.038178522
000040 b3 ac 4a bd 90 c0 78 bc 26 80 0e 3d fe 4f 76 bd
       -0.049481105 -0.015182629 0.03479018 -0.06013488
000050 96 67 16 bd eb 29 f9 3c c8 99 0d bd 09 df 33 bd
       -0.03671988 0.030415496 -0.034570485 -0.043913875
000060 d6 61 97 bc 26 2b 2b bc 0f 38 6b bb e4 09 13 3c
       -0.018479269 -0.010447299 -0.0035891568 0.008974526
000070 a3 ce 78 bd 3a b2 cc 3d 15 61 32 bd 74 04 eb bc
       -0.06074394 0.099949315 -0.043549616 -0.028688647
000080 13 09 3c bd 84 10 a4 bb f4 ec c9 3c ab 9f cd bd
       -0.04590709 -0.0050068516 0.02464912 -0.1004022
000090 50 65 db 3b 63 1a e2 bc 46 83 88 bd 0b 72 9d 3c
       0.006695427 -0.027600473 -0.066656634 0.019219419
0000a0 14 54 5f 3d e1 b0 9e bc f6 5e 99 3c 0e 3c 88 3d
       0.054523543 -0.019371452 0.018722039 0.066520795
0000b0 ee 50 52 bd 32 a5 90 bc 8c 8a ba ba 43 1c 2c bc
       -0.05134671 -0.017656896 -0.0014231964 -0.010504785
0000c0 28 59 f5 3c ca 4f d4 bd 1c 64 36 3c 35 c1 9b 3c
       0.02994974 -0.10366781 0.011132266 0.019013027
0000d0 63 f1 dc 3b 29 5c 5a 3c 1e ae f0 bc 32 72 9b 3c
       0.0067426427 0.013327637 -0.0293799 0.018975351
0000e0 a0 bb 81 bc 14 41 17 3d d0 20 25 bd c4 25 c8 3d
       -0.015836537 0.036927298 -0.040314496 0.09772828
0000f0 84 56 69 bd 6f 3b 50 bb 5e c4 2e ba 1b b7 79 3d
       -0.056967273 -0.0031773706 -0.0006666834 0.06096564
000100 ab 4a 94 bc 0f c2 be bb d2 15 13 bd a3 3d ba bc
       -0.01810201 -0.0058214734 -0.03590948 -0.022734469
000110 bb 88 70 bd 78 2a 72 bb 14 cc 7d bd a9 2b fa 3b
       -0.058724146 -0.0036951583 -0.061962202 0.007634599
000120 be 26 c2 3c a8 df 01 bc cd 75 00 3c ab c9 35 3d
       0.023700114 -0.007926859 0.007840586 0.04438178
000130 fe 49 2f bd fb a7 aa bd 57 11 20 bb ac 75 5a 3b
       -0.042795174 -0.08332821 -0.0024424398 0.0033334298
000140 99 2a b3 3c f2 cd 98 bc 95 34 61 bd de a9 3e 3b
       0.021870898 -0.01865289 -0.054981787 0.0029092948
000150 c2 bf 4a bd bf aa 17 3d f4 62 79 bd 9f a1 f6 bc
       -0.04949928 0.03702807 -0.060885385 -0.030106364
000160 6f 26 10 bd 87 1c b1 bc 5d a0 6f 3d 04 a3 23 3d
       -0.035192903 -0.021620048 0.058502544 0.039950386
000170 39 c0 d7 3b 44 c5 5b 3d db cf b2 3d ae 34 93 bc
       0.006584194 0.053654924 0.087310515 -0.017969456
000180 f1 31 18 bc 4b 4b 16 bc a3 da 64 bc 05 10 f3 ba
       -0.009289251 -0.009173225 -0.013968143 -0.0018544203
000190 da c2 c8 3c 7a 43 5b bd 8d 03 1a 3d 1a c5 1c bd
       0.024506975 -0.053531148 0.037601043 -0.03827391
0001a0 b7 1e 98 3c cd 38 ed bc 3f ce 9d bd 42 46 05 3c
       0.018569333 -0.028957749 -0.07705354 0.008134427
0001b0 0a 33 64 bd 06 4b ca bb be da 74 3d c0 fe 4b bd
       -0.055712737 -0.0061734943 0.05977892 -0.049803495
0001c0 3a 1c ca bd 9a 56 b2 3c a8 81 f3 bd fe b0 24 bd
       -0.09868665 0.02176981 -0.11889964 -0.040207855
0001d0 a5 6b 48 bb 0c 33 b3 3d c0 fe 4a 3b f8 e7 a7 bc
       -0.003058174 0.08749971 0.0030974597 -0.020496354
0001e0 ca 23 23 bd 4c 5f 3a bd 45 c1 69 bd 11 3e 19 3d
       -0.039829053 -0.04550104 -0.05706908 0.037412707
0001f0 27 32 8b 3c e4 ee 33 bc 82 5f 92 bc 4a 74 9b 3b
       0.016991688 -0.010982249 -0.017867807 0.0047440873

sequential_1/dense_3/BiasAdd/ReadVariableOp f4 [10]
000000 0e 43 b4 bc 1c b9 9f 3d 4c a9 4d bc 9c 7e 6a be
       -0.02200463 0.07798979 -0.012552571 -0.2289986
000010 07 b6 7d bd d0 a8 85 3d 15 e0 e8 3c dd 30 1e bd
       -0.061941173 0.06526339 0.028427163 -0.03862082
000020 69 40 fa bc 8e e8 ce 3d
       -0.030548291 0.1010295

sequential_1/conv2d_4/BiasAdd/ReadVariableOp f4 [32]
000000 73 01 32 3b 43 61 44 3c 34 8a 09 3c c2 59 13 bc
       0.0027161508 0.01198608 0.008394767 -0.008993568
000010 d6 86 85 bc e6 23 07 3c b4 73 2f 3a 70 68 e1 3b
       -0.016299646 0.008248305 0.00066929613 0.006878905
000020 b0 ce e0 3b d0 6a a4 bc f4 d3 ab bb e2 a1 e9 3a
       0.0068605766 -0.020070463 -0.0052437726 0.0017824734
000030 91 1b fe ba 73 d3 e2 bb fb f3 5f 3c 22 30 12 bc
       -0.0019386878 -0.0069221794 0.013669009 -0.008922609
000040 72 de a3 bb 04 31 7e bc 3c e3 35 3c 20 28 05 38
       -0.005000883 -0.015514616 0.01110154 3.174704e-05
000050 6e 6a 3a 3c 85 68 14 bb 71 9a 85 3c 17 ee 08 3c
       0.011377914 -0.0022645306 0.016308995 0.008357546
000060 9c a6 46 bb 21 55 18 ba d1 6b 15 3d af 93 ac 3b
       -0.003031171 -0.0005811025 0.036479775 0.0052666287
000070 2f 0b 62 bd 6e 16 ea bc d9 eb 48 3c d1 f7 59 bc
       -0.055186447 -0.028575148 0.012263262 -0.013303713

sequential_1/conv2d_5/BiasAdd/ReadVariableOp f4 [32]
000000 be db 70 3d 83 3c 00 3d 0d b0 1c 3d b8 d6 f2 39
       0.058803312 0.03130771 0.038253833 0.00046317815
000010 63 96 8d bc 6e 6f 0d bd ea 8d 9e bb 6c 0d 17 3c
       -0.017283624 -0.034530096 -0.004838695 0.009219509
000020 a9 6e 49 3c 7a 71 5c 3d 99 77 d3 3c 57 16 65 bc
       0.01229445 0.053819157 0.025813865 -0.013982377
000030 57 c0 b0 bc c6 af 37 bd d4 84 d4 39 32 b6 12 3c
       -0.02157609 -0.044845365 0.00040534756 0.008954572
000040 29 ff 3c 3c 55 41 2d bd bd 0f 42 bc e3 d4 37 bd
       0.011535444 -0.042298634 -0.011844573 -0.04488076
000050 85 e0 88 3c ef 3d da 3c 94 4a c9 3c 72 3f 8e 3c
       0.016708622 0.02664086 0.024571694 0.017364237
000060 93 39 f0 bc d4 ad 6a bc c7 87 d3 3c d1 19 40 3d
       -0.029324329 -0.01432367 0.02582158 0.04689962
000070 1e df 04 3d 1e ab 1d 3c 0a 4c fb 3c e9 ab a9 ba
       0.032439344 0.009623317 0.030675907 -0.001294491

sequential_1/conv2d_6/BiasAdd/ReadVariableOp f4 [64]
000000 7f cb 36 bd 60 c3 10 3c 33 2d 94 3d 5f be b2 bc
       -0.044627663 0.0088356435 0.072351836 -0.021819292
000010 97 21 7d bc 77 17 dc 3b ec b8 e6 3c c2 5c c1 3b
       -0.015449903 0.0067166644 0.02816435 0.00590095
000020 86 d6 13 bb 92 71 10 bb 64 07 c6 3c 3f d9 bd bb
       -0.0022558286 -0.002204035 0.024173446 -0.00579372
000030 17 f9 28 bc e1 d6 30 bc 44 e8 f2 3c 36 50 19 3c
       -0.010313294 -0.010793419 0.029651769 0.009357503
000040 d8 07 b9 3c b3 c8 87 bc 5c f8 13 bb ab 8c 5f 3c
       0.022586748 -0.016575193 -0.0022578454 0.013644378
000050 46 d3 a2 3c 37 07 fa 3c 5d 39 c3 3c 75 89 0a bb
       0.019876134 0.030521018 0.023831064 -0.002113906
000060 ea 0c 08 3c b6 7f 12 3c 6d ca 65 bc c7 a4 85 3c
       0.00830386 0.0089415815 -0.014025313 0.016313924
000070 34 1b 0b bd ca 57 94 bc 76 3e 9b bc 02 f4 2e bc
       -0.03396149 -0.018108267 -0.018950682 -0.010678293
000080 a8 a7 04 3b 34 8c 09 bb 61 38 8f bc bd 61 04 bd
       0.0020241532 -0.0020988109 -0.017482938 -0.032319773
000090 d4 04 49 3d ba 05 08 bc 0c 69 49 3c 3f f9 15 bc
       0.04907687 -0.008302147 0.0122931115 -0.009153663
0000a0 f0 38 3e bc a4 75 e6 3b 60 7f d6 bc b3 f7 e7 3b
       -0.011610255 0.007033067 -0.026183784 0.0070790886
0000b0 f9 e5 15 bc aa 67 c0 ba cd 6d 96 bc 65 b3 38 3c
       -0.009149068 -0.0014679332 -0.018362904 0.01127324
0000c0 f0 bf 9a bb 3b dd 44 bc 9e e1 9c 3b 37 5b 28 bc
       -0.0047225878 -0.012015636 0.004787638 -0.010275654
0000d0 f5 61 9a 3c 7c b1 f0 3c ba b4 bf 3c b8 dc 4f 3b
       0.018845538 0.029381506 0.023401607 0.0031717252
0000e0 60 bf 8b 3b 23 ad 5f bc 38 51 b4 ba c8 f9 e1 bc
       0.004264757 -0.013652119 -0.0013757115 -0.027584925
0000f0 16 3e 02 3d c7 de 22 bc ba ee c0 bb 84 b8 10 bc
       0.03179749 -0.00994081 -0.0058878334 -0.008833054

sequential_1/conv2d_7/BiasAdd/ReadVariableOp f4 [64]
000000 ce 91 0c 3d 57 d3 0b bc 94 1a 04 3d 46 23 d4 3c
       0.034318738 -0.008534274 0.03225191 0.025895726
000010 73 c7 73 3c 06 c4 da 3c 0e 40 ab 3c 3c dc 6f bc
       0.014879095 0.0267048 0.020904567 -0.01463991
000020 12 ae d1 bc 74 d2 bd bc 70 03 9d bc 88 86 8c bd
       -0.025595699 -0.023171641 -0.019166678 -0.06861597
000030 6e f9 42 bc 12 1a 65 3c da c0 7e bd 75 cb 04 3c
       -0.011900289 0.013983266 -0.062195636 0.008105149
000040 a7 0e 4c 3d 3e 4d 5f 3d bc 82 01 3d 15 70 14 bd
       0.04981866 0.054517023 0.03161882 -0.036239702
000050 be 88 59 bc e9 92 53 3c 1b c0 3d bc d4 41 14 3d
       -0.013277231 0.012913444 -0.011581446 0.03619559
000060 8c f8 17 3d 85 a3 81 3c 35 28 5b 3d cd 28 0e bc
       0.037102267 0.015825043 0.05350514 -0.00867672
000070 ec fc 12 bc 99 31 f3 bc af e8 12 3d a7 0a 12 bd
       -0.008971434 -0.029686736 0.035866436 -0.03565469
000080 38 94 d8 bb 5e e3 f4 bb dc 71 c1 bc 82 db 91 3c
       -0.006609466 -0.0074733933 -0.023613863 0.017804865
000090 cc 70 7a 3b 58 e2 8e bd 51 1f 6e bd 4c a7 5b 3c
       0.0038214205 -0.069767654 -0.058135334 0.013406586
0000a0 02 f5 6a 3d bf 20 67 bc 47 74 ac 3c c8 a5 2f bd
       0.057362564 -0.014106928 0.02105154 -0.04288271
0000b0 c5 3b 13 3d e0 0a 13 bd 06 4a 13 3d ac 2e 91 3c
       0.035945673 -0.035899043 0.035959266 0.01772245
0000c0 76 de 3d bc c7 fc d2 bc fc d9 04 bc 60 72 cd bc
       -0.011588683 -0.0257553 -0.008108612 -0.025078952
0000d0 9e 42 63 bc 6c 98 0e 3c ae bf 36 3c 91 df 4f bd
       -0.013870863 0.008703332 0.011154098 -0.05075032
0000e0 8b 02 d5 3c 2e 08 df bc f9 18 8e 3d 7c f0 b2 bc
       0.02600219 -0.02722558 0.06938357 -0.021843188
0000f0 91 71 71 3c 31 f5 e8 bc 92 21 8c bc 2a de 5d bc
       0.014736549 -0.028437229 -0.017105851 -0.013541738

sequential_1/conv2d_4/Conv2D f4 [32, 5, 5, 1]
000000 c9 1e 8c bd f3 03 4f 3d 9b e6 85 3c a9 81 2f be
       -0.06841809 0.050540876 0.016345313 -0.17139305
000010 9b 46 1c 3b 92 88 99 3c c8 34 7b 3d 64 fc b7 bd
       0.0023845795 0.01874188 0.061329633 -0.089836866
000020 ce 48 53 be ee f2 1c 3c 66 f3 83 bc 8f d0 00 3d
       -0.20633242 0.009579403 -0.016107272 0.031448897
000030 d9 23 dd bd b8 31 58 be 5c 65 3a bd 1a 84 91 3c
       -0.10797853 -0.21112716 -0.04550682 0.017763186
000040 d8 cc 88 3d 37 1d ad bc a0 83 0d be fe 26 9e bd
       0.06679696 -0.021132095 -0.13819742 -0.07722281
000050 b2 ec d9 bc 5b 18 b6 bd d6 84 91 3d 16 df dc 3b
       -0.026602123 -0.08891364 0.071054146 0.006740461
000060 cf 12 0e 3e 93 e8 a6 bc 42 00 07 bc 56 8b eb bb
       0.13874362 -0.020374572 -0.008239808 -0.007188241
000070 cf 34 17 3d 98 86 38 bd 53 80 06 bc 62 52 8d 3d
       0.036915597 -0.045050234 -0.008209306 0.06900479
000080 3b 34 45 3d 59 1b de 3c 73 3d 67 bd 7f 0a 3a 3d
       0.048145514 0.02711265 -0.056455087 0.045420166
000090 43 c2 46 bd 1a 14 b7 bd 23 b7 82 bc bd 70 da bc
       -0.048525106 -0.08939381 -0.015956467 -0.026665086
0000a0 7c f2 02 bb be ce 06 bd 18 5b 3f bc 6c 98 0c bc
       -0.0019980958 -0.03291201 -0.011679433 -0.008581262
0000b0 15 26 60 bc 8c cd 4c 3d 49 90 7b bb 50 d9 10 bc
       -0.013680954 0.050000712 -0.0038385561 -0.008840874
0000c0 98 1e 91 3d 90 14 d8 3d ea 66 48 3c 87 d2 9d bc
       0.070859134 0.10550797 0.012231568 -0.019265426
0000d0 90 49 02 3d 6a 28 e6 3c c9 0a 58 3d af 7a 8a bc
       0.031808436 0.028095443 0.05274466 -0.016904203
0000e0 18 2b 94 bd 36 40 95 3c 3c 69 c3 3c 2d c6 83 3d
       -0.07234782 0.018219095 0.02385389 0.064342834
0000f0 ce 8f 3a bc 7b 4f 35 3d 72 07 35 bd 38 56 af bd
       -0.011386825 0.04426525 -0.044196554 -0.08561367
000100 69 89 d1 bd a5 23 2c 3c 57 d0 46 3d 30 f1 06 be
       -0.10231287 0.010506545 0.048538532 -0.13177943
000110 22 05 49 bc 9c b4 30 bd 82 28 1a bd 85 17 4d bd
       -0.01226929 -0.043140993 -0.037636288 -0.050071258
000120 32 f0 cb 3d d3 25 32 3e e4 c4 d4 bd 53 34 32 3d
       0.09957923 0.17397241 -0.103891164 0.04350693
000130 66 51 05 bc ee 12 f3 bc 1a 93 00 bd 22 55 56 bd
       -0.008137083 -0.029672112 -0.031390287 -0.052327283
000140 b9 98 52 bc 0f 43 be bd a1 37 6d bc 74 4a b1 3c
       -0.012853795 -0.09290134 -0.014478595 0.021641947
000150 76 dc 04 bd b0 10 54 3c 3e 79 51 3d 85 00 43 bc
       -0.03243681 0.012943432 0.051141016 -0.011901979
000160 40 fe 86 bd fb 3b 38 be a0 c9 47 bd e7 3a a9 bd
       -0.06591463 -0.1799163 -0.04877627 -0.08263188
000170 c1 ae e5 bc 0a f1 8f 3d d7 69 02 3d c1 ad 93 bd
       -0.02803743 0.070283964 0.031839218 -0.07210875
000180 65 d7 0c bd 1f 0f 7b bd c9 b8 96 3c 80 ab f3 3c
       -0.034385104 -0.061293717 0.01839866 0.029744864
000190 b8 ad 40 bd 36 11 3f 3d 01 f8 7f bc 0c 89 e7 bc
       -0.04704067 0.046647273 -0.015623094 -0.028263591
0001a0 f3 4f b0 3b dd 0d 00 3c 8f ec 57 3b 94 bb 8b 3d
       0.0053806244 0.007815805 0.0032947396 0.06822887
0001b0 65 ab d7 3d e3 91 8b 3d d2 32 10 bc b4 95 1b 3d
       0.10530738 0.06814935 -0.008801179 0.037984565
0001c0 6e a0 11 bc dc 3a f4 bd 85 c4 37 bd 42 bc 30 bd
       -0.008888347 -0.11925289 -0.04486515 -0.043148287
0001d0 14 7c 31 3d ca de 46 be de 6f 59 bf 08 f7 15 bf
       0.04333122 -0.19420925 -0.8493632 -0.58580065
0001e0 d5 0e 08 bd a5 a8 82 bd eb c4 32 bd c8 6b 8f 3d
       -0.03321727 -0.06379823 -0.043644827 0.070029795
0001f0 70 30 c4 3d de 40 7f 3d f8 61 eb bc 9e 4e 10 3d
       0.09579551 0.06231772 -0.028733239 0.035231225
000200 c1 db 26 3d 15 86 52 3b 87 42 b5 bd 63 27 00 bd
       0.040736917 0.0032123376 -0.0885058 -0.031287562
000210 b7 74 2d 3c 8f 28 e7 3c 40 a5 5a be 33 73 09 3d
       0.010586909 0.028217582 -0.213521 0.03355713
000220 d5 d1 55 bd 33 a1 5a 3d ea 00 45 3d 71 87 06 bd
       -0.052202065 0.053376388 0.048096575 -0.03284401
000230 52 c4 0a 3c ef 48 e2 bd 46 19 91 bd 4f 0b 98 bc
       0.008469658 -0.11049067 -0.07084899 -0.01856008
000240 a1 ec 81 be 60 5e 49 bb f1 16 cd 3d e8 16 5c be
       -0.25375846 -0.0030726418 0.10014141 -0.21493113
000250 68 ca 31 bf a4 86 c8 be de 4b 17 bc d6 3c da 3d
       -0.6944947 -0.39165223 -0.009234397 0.10656135
000260 1c 56 8f bd 34 d8 97 3d 17 0d 1d 3d 2d 78 8b 3d
       -0.06998846 0.07414284 0.03834256 0.06810031
000270 d8 b0 85 bd 2a f7 f9 ba 05 ea 36 3d 3b 4b 09 bc
       -0.06527871 -0.0019070853 0.044656772 -0.008379753
000280 36 aa f0 bc 3c f6 a1 bd 80 90 c6 3c 59 2f f9 bd
       -0.029378038 -0.079082936 0.024238825 -0.12167234
000290 51 44 4d bd a1 cf a4 3d 09 4b da bc 95 82 31 3e
       -0.05011398 0.080474146 -0.026647108 0.1733497
0002a0 c3 d6 70 bd cd a9 99 be 10 5a 0f 3c a2 14 cf bd
       -0.058798563 -0.3001236 0.0087495 -0.10111357
0002b0 09 56 24 3e b3 ce aa bd e5 0d 69 be 7e 95 f5 bc
       0.16048445 -0.08340206 -0.22759207 -0.02997851
0002c0 3e 2e 36 bd 78 26 43 3c 15 a9 4d 3d bb aa 71 3d
       -0.044477694 0.011911027 0.050210077 0.059000712
0002d0 a7 f2 d0 3c 82 05 ea 3c 18 c2 5a bc 0f 0d 98 bc
       0.02550633 0.02856708 -0.01335194 -0.018560914
0002e0 17 72 53 3d 28 0b 16 bd 1c 1f 28 bd b7 5d c2 bd
       0.051622476 -0.036631733 -0.041045293 -0.09490531
0002f0 12 55 b7 bd 96 2d 0b be f5 d2 dc 3c 0e e3 39 3a
       -0.08951773 -0.13591608 0.02695606 0.0007091024
000300 89 c1 06 3e 97 d4 b4 3d 95 40 44 3d 4a 8b 42 bc
       0.13159765 0.08829611 0.047913153 -0.011874029
000310 50 49 c1 bb b1 26 ee bc fc ed 5a 3c 29 df 34 be
       -0.005898632 -0.029071184 0.013362404 -0.17663254
000320 b4 17 39 3d bb 20 a4 3c 2c 74 98 3d 27 bd 81 bc
       0.04518862 0.020035138 0.07444033 -0.015837265
000330 d0 c4 91 bd b6 40 5c bd 45 a9 e4 bd 2e b0 ba 3d
       -0.07117617 -0.05377265 -0.11165098 0.09115635
000340 23 d5 cd bd 39 ec f1 bd 74 9a d3 3c c5 8c 0e bb
       -0.10050418 -0.11812634 0.025830485 -0.0021751386
000350 0e 22 5e bd 1a 48 6e be f4 90 01 bf 43 b9 0d 3b
       -0.054231696 -0.23269692 -0.50611806 0.0021625317
000360 01 04 b5 3d c3 a1 42 bd 59 e0 d9 be 1a 6c 3b be
       0.08838654 -0.04751755 -0.42553976 -0.18302956
000370 0c f6 8a 3d cc 4e ba 3d f8 a4 46 be a1 47 2d bf
       0.06785211 0.090970606 -0.19398868 -0.6768742
000380 c9 4a e0 be 29 40 66 3c 4c 6e 2c 3d 51 aa c1 bd
       -0.43807057 0.014053383 0.042097375 -0.094563134
000390 8d 67 1b bd c5 a6 41 be 75 13 50 bd 8c 40 f9 bc
       -0.03794055 -0.18911274 -0.050799806 -0.030426286
0003a0 04 47 27 3d 22 8e 1b 3d ca 70 7a 3c 51 d4 1e bd
       0.04083921 0.037977345 0.01528568 -0.0387767
0003b0 72 73 a3 3d 8a f3 8f 3b cb 6a bd 3d 77 d8 e2 3d
       0.07981004 0.004393046 0.09248885 0.11076444
0003c0 c8 11 80 3d 0c 59 cf bb 00 4d a4 bd 4b 9f 3b bd
       0.062533915 -0.006327754 -0.08022499 -0.04580621
0003d0 0e 04 d1 3c f0 ba 83 bb a0 93 02 3c 1c 46 9b bd
       0.025514629 -0.0040200874 0.007969767 -0.07581732
0003e0 b9 87 d8 bd 3c 71 75 3d 65 6c e6 bd be 29 78 bd
       -0.10572762 0.05992244 -0.11251143 -0.060586683
0003f0 7c 03 33 3c 8f 39 fc 3b a0 d9 d0 b8 d8 db 97 bd
       0.010926124 0.007697291 -9.958749e-05 -0.07414979

sequential_1/conv2d_5/Conv2D i1 [32, 5, 5, 32]
000000 11 02 fb fe 11 fc ee fa 00 1c fa 20 04 07 11 f4
       17 2 -5 -2 17 -4 -18 -6 0 28 -6 32 4 7 17 -12
000010 1e 23 1a f2 18 db 08 e6 fb 0c 36 f9 00 ff 09 0a
       30 35 26 -14 24 -37 8 -26 -5 12 54 -7 0 -1 9 10
000020 0e 08 fc 08 0c 05 fa 0c 0a 25 f2 0a 0d 0b 20 f8
       14 8 -4 8 12 5 -6 12 10 37 -14 10 13 11 32 -8
000030 11 1d 12 17 1f de 00 f8 ec fa 19 13 0a 03 15 10
       17 29 18 23 31 -34 0 -8 -20 -6 25 19 10 3 21 16
000040 05 08 06 ec 1d f6 ea f3 06 18 01 0d 03 db d5 2c
       5 8 6 -20 29 -10 -22 -13 6 24 1 13 3 -37 -43 44
000050 e4 f2 c3 fb 08 e8 f6 fd e4 00 05 ef fc f4 ed ee
       -28 -14 -61 -5 8 -24 -10 -3 -28 0 5 -17 -4 -12 -19 -18
000060 ff 04 fd e0 16 e9 f9 f7 03 f9 d5 21 08 e5 f6 3c
       -1 4 -3 -32 22 -23 -7 -9 3 -7 -43 33 8 -27 -10 60
000070 e1 0f 12 00 c6 e1 d1 f8 ef a7 d2 e6 1e 02 d9 43
       -31 15 18 0 -58 -31 -47 -8 -17 -89 -46 -26 30 2 -39 67
000080 03 f0 1b 00 1c cc 0a fa 0d d3 ec 08 f2 03 07 02
       3 -16 27 0 28 -52 10 -6 13 -45 -20 8 -14 3 7 2
000090 d9 cf 15 fe e9 ed f6 0c f5 17 b7 e0 25 0e c1 ee
       -39 -49 21 -2 -23 -19 -10 12 -11 23 -73 -32 37 14 -63 -18
0000a0 0a 0f 0d 1c ff f7 b4 a3 f4 f8 22 09 f0 fb 01 e7
       10 15 13 28 -1 -9 -76 -93 -12 -8 34 9 -16 -5 1 -25
0000b0 f4 ff ff f6 12 e1 06 ee ec b1 1a 02 23 da 19 01
       -12 -1 -1 -10 18 -31 6 -18 -20 -79 26 2 35 -38 25 1
0000c0 ff fb 12 ee 15 f6 00 f2 fc f5 f0 f5 12 e0 02 03
       -1 -5 18 -18 21 -10 0 -14 -4 -11 -16 -11 18 -32 2 3
0000d0 c7 c5 ff e6 0d ed f9 0f d9 f1 07 e7 19 0f f8 03
       -57 -59 -1 -26 13 -19 -7 15 -39 -15 7 -25 25 15 -8 3
0000e0 fc f2 11 15 d8 e2 f9 f4 fd fc eb eb fe 0e ea f1
       -4 -14 17 21 -40 -30 -7 -12 -3 -4 -21 -21 -2 14 -22 -15
0000f0 af ef ce 02 ae f6 cc 05 e9 11 d2 fe 03 eb c9 06
       -81 -17 -50 2 -82 -10 -52 5 -23 17 -46 -2 3 -21 -55 6

sequential_1/conv2d_6/Conv2D i1 [64, 3, 3, 32]
000000 ef f0 04 c2 1e 05 fd 2f ee 1a fe 3b e7 c5 17 f3
       -17 -16 4 -62 30 5 -3 47 -18 26 -2 59 -25 -59 23 -13
000010 9d eb 2e 06 da 29 e9 14 d2 ef 0f 21 d2 e6 09 e7
       -99 -21 46 6 -38 41 -23 20 -46 -17 15 33 -46 -26 9 -25
000020 33 aa 20 d4 d3 35 d1 27 19 26 2a f4 fb f5 c1 09
       51 -86 32 -44 -45 53 -47 39 25 38 42 -12 -5 -11 -63 9
000030 c7 f1 f2 b9 f3 fd 11 eb 06 02 00 fc ed f0 fa d8
       -57 -15 -14 -71 -13 -3 17 -21 6 2 0 -4 -19 -16 -6 -40
000040 e7 81 f8 c4 f7 f7 e4 10 17 35 f0 0d 29 1e ef 18
       -25 -127 -8 -60 -9 -9 -28 16 23 53 -16 13 41 30 -17 24
000050 f2 04 3b d9 3f f5 15 1d cf 0d fd e3 cf a9 e0 f9
       -14 4 59 -39 63 -11 21 29 -49 13 -3 -29 -49 -87 -32 -7
000060 ef 03 2d f5 1e 1b f3 e4 0f 15 f7 ee 0e e2 e5 e4
       -17 3 45 -11 30 27 -13 -28 15 21 -9 -18 14 -30 -27 -28
000070 fc 0b 02 f2 02 33 fd 09 fd cb d2 0a 0f 3a 14 e0
       -4 11 2 -14 2 51 -3 9 -3 -53 -46 10 15 58 20 -32
000080 01 35 09 16 02 d9 08 ea 1b de e5 f2 1d f0 c4 18
       1 53 9 22 2 -39 8 -22 27 -34 -27 -14 29 -16 -60 24
000090 e3 ec eb 12 ff 08 0d 35 06 cd dd 26 0b f4 f8 f2
       -29 -20 -21 18 -1 8 13 53 6 -51 -35 38 11 -12 -8 -14
0000a0 d2 02 02 20 f1 e8 19 dd 37 de f8 00 14 0c f4 ee
       -46 2 2 32 -15 -24 25 -35 55 -34 -8 0 20 12 -12 -18
0000b0 14 e5 c8 e0 03 06 30 16 37 06 1e fe fb 15 13 44
       20 -27 -56 -32 3 6 48 22 55 6 30 -2 -5 21 19 68
0000c0 00 39 c8 19 1b e2 06 0b 13 ec fe 10 05 ee e1 02
       0 57 -56 25 27 -30 6 11 19 -20 -2 16 5 -18 -31 2
0000d0 01 04 ef c5 25 c2 22 23 28 eb cd d6 0a 0d 04 0f
       1 4 -17 -59 37 -62 34 35 40 -21 -51 -42 10 13 4 15
0000e0 e8 07 f9 f1 ef 17 18 f8 0c 11 da f7 11 d5 d4 ef
       -24 7 -7 -15 -17 23 24 -8 12 17 -38 -9 17 -43 -44 -17
0000f0 e2 f4 db d7 0b f1 30 20 48 07 b0 f3 ea 22 04 0e
       -30 -12 -37 -41 11 -15 48 32 72 7 -80 -13 -22 34 4 14

sequential_1/conv2d_7/Conv2D i1 [64, 3, 3, 64]
000000 e6 f4 28 30 d3 e9 22 f3 02 b3 01 ca f6 e4 eb 1c
       -26 -12 40 48 -45 -23 34 -13 2 -77 1 -54 -10 -28 -21 28
000010 e2 22 c9 29 ef 0b 07 1b 2f 22 ee f1 f1 53 c3 d4
       -30 34 -55 41 -17 11 7 27 47 34 -18 -15 -15 83 -61 -44
000020 fb 90 de e6 32 fe 1b 1a ff 14 1e e7 d8 fe 0c 0f
       -5 -112 -34 -26 50 -2 27 26 -1 20 30 -25 -40 -2 12 15
000030 ff 0f e0 21 b2 02 0b e8 06 19 e0 0e 13 f0 02 2c
       -1 15 -32 33 -78 2 11 -24 6 25 -32 14 19 -16 2 44
000040 1f 09 37 1e 0e e3 c7 f7 d8 d8 fc 00 db fb eb ff
       31 9 55 30 14 -29 -57 -9 -40 -40 -4 0 -37 -5 -21 -1
000050 f0 fc 1e 0e f6 19 ce b9 16 99 f8 10 d5 3a 12 b6
       -16 -4 30 14 -10 25 -50 -71 22 -103 -8 16 -43 58 18 -74
000060 14 9a fb 13 2a f1 3f f3 c9 ea 04 a6 da 01 00 1d
       20 -102 -5 19 42 -15 63 -13 -55 -22 4 -90 -38 1 0 29
000070 fa 1a 1d 3b ff 18 ef 0d 32 b5 fa 39 d5 14 03 0d
       -6 26 29 59 -1 24 -17 13 50 -75 -6 57 -43 20 3 13
000080 e5 00 f8 12 28 26 f0 1d a9 fb 0b 11 de fc df 0e
       -27 0 -8 18 40 38 -16 29 -87 -5 11 17 -34 -4 -33 14
000090 f4 ef 0b 2c 18 0c d0 fe 15 23 e2 f4 02 1e 09 0a
       -12 -17 11 44 24 12 -48 -2 21 35 -30 -12 2 30 9 10
0000a0 29 b8 02 fe 06 2c 21 15 f7 fd e8 f1 e6 f1 17 e4
       41 -72 2 -2 6 44 33 21 -9 -3 -24 -15 -26 -15 23 -28
0000b0 02 0a ed 1c 08 ee 9e 1d 2b fd 0c ee a8 ed 08 0d
       2 10 -19 28 8 -18 -98 29 43 -3 12 -18 -88 -19 8 13
0000c0 06 00 21 31 fe bb ef e4 e9 eb 01 e6 01 ca db 0b
       6 0 33 49 -2 -69 -17 -28 -23 -21 1 -26 1 -54 -37 11
0000d0 db 28 c1 15 fc 11 ef 13 27 3b 10 d8 02 23 1c ad
       -37 40 -63 21 -4 17 -17 19 39 59 16 -40 2 35 28 -83
0000e0 05 cc 0e d5 f9 33 1a fd 0a e2 bf 1b fe 09 d6 dd
       5 -52 14 -43 -7 51 26 -3 10 -30 -65 27 -2 9 -42 -35
0000f0 04 3b fa 00 c1 ea ee e2 1e 05 e5 12 0d ec e4 ff
       4 59 -6 0 -63 -22 -18 -30 30 5 -27 18 13 -20 -28 -1

sequential_1/dense_2/MatMul i1 [128, 576] scale=0.004630142 zero_point=0
000000 05 0b f6 0a fb 05 ea 10 03 13 ff 04 04 06 21 01
       0.023150709 0.05093156 -0.046301417 0.046301417 -0.023150709 0.023150709 -0.10186312 0.07408227 0.013890426 0.08797269 -0.004630142 0.018520568 0.018520568 0.027780851 0.15279469 0.004630142
000010 ea 04 0d 0b 0a 1c 0c 01 ed e1 fd 13 1c 25 19 14
       -0.10186312 0.018520568 0.060191844 0.05093156 0.046301417 0.12964398 0.055561703 0.004630142 -0.08797269 -0.14353439 -0.013890426 0.08797269 0.12964398 0.17131525 0.11575355 0.092602834
000020 f1 04 15 e8 1e 1c 00 05 03 f8 02 fa 0f f9 03 14
       -0.06945213 0.018520568 0.09723298 -0.111123405 0.13890426 0.12964398 0.0 0.023150709 0.013890426 -0.037041135 0.009260284 -0.027780851 0.06945213 -0.032410994 0.013890426 0.092602834
000030 10 f5 26 18 0c 25 0b f3 21 0c f0 f3 46 04 eb 0b
       0.07408227 -0.05093156 0.17594539 0.111123405 0.055561703 0.17131525 0.05093156 -0.060191844 0.15279469 0.055561703 -0.07408227 -0.060191844 0.32410994 0.018520568 -0.09723298 0.05093156
000040 04 12 dc 0a 1e ed fd f5 fa 0d 04 ef 04 26 0d 1f
       0.018520568 0.08334255 -0.1666851 0.046301417 0.13890426 -0.08797269 -0.013890426 -0.05093156 -0.027780851 0.060191844 0.018520568 -0.07871241 0.018520568 0.17594539 0.060191844 0.14353439
000050 ea f6 0b fc 29 07 f7 14 f7 fc e6 ed ed 20 fa 20
       -0.10186312 -0.046301417 0.05093156 -0.018520568 0.18983582 0.032410994 -0.041671276 0.092602834 -0.041671276 -0.018520568 -0.12038369 -0.08797269 -0.08797269 0.14816454 -0.027780851 0.14816454
000060 10 05 f0 d9 eb 02 fa 34 02 fa f0 06 02 f4 0f d1
       0.07408227 0.023150709 -0.07408227 -0.18057553 -0.09723298 0.009260284 -0.027780851 0.24076737 0.009260284 -0.027780851 -0.07408227 0.027780851 0.009260284 -0.055561703 0.06945213 -0.21761666
000070 1d e8 1e 1c 09 11 13 0b 24 bb fc ed 1f f5 f5 21
       0.13427411 -0.111123405 0.13890426 0.12964398 0.041671276 0.07871241 0.08797269 0.05093156 0.1666851 -0.3194798 -0.018520568 -0.08797269 0.14353439 -0.05093156 -0.05093156 0.15279469
000080 13 06 01 fd 02 f0 00 e3 f8 f8 09 26 fc ff 0f 2f
       0.08797269 0.027780851 0.004630142 -0.013890426 0.009260284 -0.07408227 0.0 -0.13427411 -0.037041135 -0.037041135 0.041671276 0.17594539 -0.018520568 -0.004630142 0.06945213 0.21761666
000090 ed fd 02 05 21 15 08 fc 29 08 fe 12 fb 3e c2 15
       -0.08797269 -0.013890426 0.009260284 0.023150709 0.15279469 0.09723298 0.037041135 -0.018520568 0.18983582 0.037041135 -0.009260284 0.08334255 -0.023150709 0.28706878 -0.28706878 0.09723298
0000a0 0f 09 e2 fe 06 08 f6 12 0c 0b 0d 01 ee ff 13 df
       0.06945213 0.041671276 -0.13890426 -0.009260284 0.027780851 0.037041135 -0.046301417 0.08334255 0.055561703 0.05093156 0.060191844 0.004630142 -0.08334255 -0.004630142 0.08797269 -0.15279469
0000b0 11 f0 e3 0c 0c fb fc 0f 2f cc ed 0a 0f 13 04 0f
       0.07871241 -0.07408227 -0.13427411 0.055561703 0.055561703 -0.023150709 -0.018520568 0.06945213 0.21761666 -0.24076737 -0.08797269 0.046301417 0.06945213 0.08797269 0.018520568 0.06945213
0000c0 07 f9 07 f2 02 15 01 0f 1d dc 0f fc 33 06 f8 2c
       0.032410994 -0.032410994 0.032410994 -0.06482199 0.009260284 0.09723298 0.004630142 0.06945213 0.13427411 -0.1666851 0.06945213 -0.018520568 0.23613724 0.027780851 -0.037041135 0.20372625
0000d0 f2 00 01 1c 15 f2 f3 1c 04 18 ec 09 e3 0f fd 29
       -0.06482199 0.0 0.004630142 0.12964398 0.09723298 -0.06482199 -0.060191844 0.12964398 0.018520568 0.111123405 -0.092602834 0.041671276 -0.13427411 0.06945213 -0.013890426 0.18983582
0000e0 01 fe f9 0e f0 ef f0 0b 23 fb 0b 13 fd 11 ee ff
       0.004630142 -0.009260284 -0.032410994 0.06482199 -0.07408227 -0.07871241 -0.07408227 0.05093156 0.16205497 -0.023150709 0.05093156 0.08797269 -0.013890426 0.07871241 -0.08334255 -0.004630142
0000f0 e5 12 fe f3 03 f3 f7 25 0c 03 15 f3 29 03 1b 0c
       -0.12501383 0.08334255 -0.009260284 -0.060191844 0.013890426 -0.060191844 -0.041671276 0.17131525 0.055561703 0.013890426 0.09723298 -0.060191844 0.18983582 0.013890426 0.12501383 0.055561703

sequential_1/dense_3/MatMul i1 [10, 128] scale=0.0116044115 zero_point=0
000000 0d fd 0f 00 b2 f5 df 02 0b 08 ce d6 e6 13 c1 fd
       0.15085734 -0.034813233 0.17406617 0.0 -0.9051441 -0.12764853 -0.38294557 0.023208823 0.12764853 0.09283529 -0.5802206 -0.48738527 -0.3017147 0.22048382 -0.7310779 -0.034813233
000010 00 e8 ea fa 01 05 fb e2 ed fc fc ef f7 cc f9 0b
       0.0 -0.27850586 -0.25529706 -0.069626465 0.0116044115 0.05802206 -0.05802206 -0.34813234 -0.22048382 -0.046417646 -0.046417646 -0.197275 -0.104439706 -0.6034294 -0.08123088 0.12764853
000020 ff d0 0d f3 ec 0c e5 dd f4 f1 08 d9 f8 0d e6 0b
       -0.0116044115 -0.5570117 0.15085734 -0.15085734 -0.23208824 0.13925293 -0.31331912 -0.4061544 -0.13925293 -0.17406617 0.09283529 -0.45257205 -0.09283529 0.15085734 -0.3017147 0.12764853
000030 cd c1 06 0a ea d6 e3 f1 14 aa e0 e3 ce 01 e5 f5
       -0.591825 -0.7310779 0.069626465 0.11604412 -0.25529706 -0.48738527 -0.33652794 -0.17406617 0.23208824 -0.9979794 -0.37134117 -0.33652794 -0.5802206 0.0116044115 -0.31331912 -0.12764853
000040 f1 fa f4 04 e6 e2 0c 02 dc ef 15 08 d0 fb 0e 06
       -0.17406617 -0.069626465 -0.13925293 0.046417646 -0.3017147 -0.34813234 0.13925293 0.023208823 -0.41775882 -0.197275 0.24369264 0.09283529 -0.5570117 -0.05802206 0.16246176 0.069626465
000050 f9 f9 e3 c3 f0 fc ec f4 e1 e6 f6 05 f1 16 a0 0c
       -0.08123088 -0.08123088 -0.33652794 -0.7078691 -0.18567058 -0.046417646 -0.23208824 -0.13925293 -0.35973677 -0.3017147 -0.11604412 0.05802206 -0.17406617 0.25529706 -1.1140234 0.13925293
000060 bb 10 df f1 ed da f9 f3 07 03 db 0b d5 03 d9 fc
       -0.8007044 0.18567058 -0.38294557 -0.17406617 -0.22048382 -0.44096765 -0.08123088 -0.15085734 0.08123088 0.034813233 -0.42936322 0.12764853 -0.4989897 0.034813233 -0.45257205 -0.046417646
000070 02 16 cc 0f cb ca fe ec 06 0c fe e1 ca dc 08 08
       0.023208823 0.25529706 -0.6034294 0.17406617 -0.6150338 -0.62663823 -0.023208823 -0.23208824 0.069626465 0.13925293 -0.023208823 -0.35973677 -0.62663823 -0.41775882 0.09283529 0.09283529
000080 e6 d9 d1 f4 17 0d 0f f6 e4 e7 eb e4 ce d5 15 d0
       -0.3017147 -0.45257205 -0.54540735 -0.13925293 0.26690146 0.15085734 0.17406617 -0.11604412 -0.32492352 -0.2901103 -0.24369264 -0.32492352 -0.5802206 -0.4989897 0.24369264 -0.5570117
000090 e2 0a 17 d1 c4 0b f5 b3 fe c6 eb db d7 0f 09 ee
       -0.34813234 0.11604412 0.26690146 -0.54540735 -0.6962647 0.12764853 -0.12764853 -0.89353967 -0.023208823 -0.6730559 -0.24369264 -0.42936322 -0.47578087 0.17406617 0.104439706 -0.20887941
0000a0 f8 02 ec d0 05 07 fb 12 0e bf 09 0d f4 09 0d bb
       -0.09283529 0.023208823 -0.23208824 -0.5570117 0.05802206 0.08123088 -0.05802206 0.20887941 0.16246176 -0.75428677 0.104439706 0.15085734 -0.13925293 0.104439706 0.15085734 -0.8007044
0000b0 03 03 d8 f7 eb 0b fa 9b cd 12 cf 0d 1a 01 04 f5
       0.034813233 0.034813233 -0.46417648 -0.104439706 -0.24369264 0.12764853 -0.069626465 -1.1720456 -0.591825 0.20887941 -0.56861615 0.15085734 0.3017147 0.0116044115 0.046417646 -0.12764853
0000c0 ec 04 d2 ca ce f3 e8 f5 11 12 d9 13 d4 f9 dd 05
       -0.23208824 0.046417646 -0.5338029 -0.62663823 -0.5802206 -0.15085734 -0.27850586 -0.12764853 0.197275 0.20887941 -0.45257205 0.22048382 -0.5105941 -0.08123088 -0.4061544 0.05802206
0000d0 e4 03 ec 15 fd 0c c2 07 d5 08 07 0b dc 09 1e dd
       -0.32492352 0.034813233 -0.23208824 0.24369264 -0.034813233 0.13925293 -0.71947354 0.08123088 -0.4989897 0.09283529 0.08123088 0.12764853 -0.41775882 0.104439706 0.34813234 -0.4061544
0000e0 0c e1 ee 09 15 da 03 10 ef f4 01 df 09 09 0d e2
       0.13925293 -0.35973677 -0.20887941 0.104439706 0.24369264 -0.44096765 0.034813233 0.18567058 -0.197275 -0.13925293 0.0116044115 -0.38294557 0.104439706 0.104439706 0.15085734 -0.34813234
0000f0 e4 eb dd f7 00 0b 01 dd bf da cd de 14 1a f8 f1
       -0.32492352 -0.24369264 -0.4061544 -0.104439706 0.0 0.12764853 0.0116044115 -0.4061544 -0.75428677 -0.44096765 -0.591825 -0.39455 0.23208824 0.3017147 -0.09283529 -0.17406617
