McAndroidApp/app/src/main/ml/model4.tflite (tflite, 167080 bytes, 12 tensors)

sequential_3/dense_6/BiasAdd/ReadVariableOp f4 [128]
0	0xbd1fce6d	-0.039015222
1	0xbd18de64	-0.037321463
2	0xbd848b58	-0.0647189
3	0xbd6c969e	-0.057760827
4	0xbd29519a	-0.041337587
5	0xbca5fa40	-0.02026093
6	0x3d0a44c4	0.033756986
7	0xbd490030	-0.049072444
8	0xbc81fa59	-0.015866445
9	0xbc3f0fa5	-0.011661445
10	0xbd9576b7	-0.07298034
11	0xbd2b8c63	-0.04188193
12	0x3d3fc76c	0.046821043
13	0x3ca364a9	0.01994546
14	0xbc005a95	-0.007834096
15	0xbcaf6ce2	-0.021414224
16	0x3c84d6c5	0.016215691
17	0xbc292ef8	-0.01032614
18	0xbd02c9ed	-0.031930853
19	0xbca9f88b	-0.020748397
20	0xbc9dcb4b	-0.019261977
21	0x3d387de4	0.045041934
22	0xbd1e2a0e	-0.038614325
23	0xbda32f0e	-0.07967959
24	0xbda49e56	-0.08038013
25	0xbd1bf109	-0.038071666
26	0x3d315858	0.04329714
27	0xbc71cb5a	-0.014757955
28	0xbccbfb96	-0.024900239
29	0x3d54c052	0.051941223
30	0xbce44e7b	-0.027869454
31	0xbc960697	-0.01831369
32	0xbdaf59bb	-0.085620366
33	0x3d5f27f8	0.054481477
34	0x3d457632	0.048208423
35	0x3d21beac	0.03948848
36	0xbd000387	-0.031253364
37	0xbd5cc209	-0.053895984
38	0xbc859ec4	-0.016311057
39	0x3c57a7b5	0.013162543
40	0xbc9e8bd1	-0.019353779
41	0xbc1da7f4	-0.009622563
42	0x3d1d1be9	0.038356695
43	0xbcead6c0	-0.028666854
44	0xbd60b772	-0.054862447
45	0x3d615419	0.055011842
46	0xbd0c4cd7	-0.034252968
47	0xbd2f1b38	-0.042750567
48	0xbdc4eb3e	-0.096151814
49	0xbd20083a	-0.039070345
50	0xbd137a14	-0.036005095
51	0xbcbc0913	-0.022953546
52	0xbd770a61	-0.060312632
53	0x3cde07f1	0.027103396
54	0xbbed32e5	-0.007238733
55	0xbd29c590	-0.041448176
56	0xbd12bf8a	-0.035827197
57	0xbc075462	-0.0082598645
58	0xbc102a34	-0.0087991245
59	0xbd2667be	-0.04062628
60	0xbd145bb9	-0.036220286
61	0xbda6fcc5	-0.08153681
62	0x3c7eec13	0.015559214
63	0x3da30a3a	0.07960935
64	0xbbfb5597	-0.007670115
65	0xbd8c7c86	-0.068596885
66	0xbd1a931e	-0.037737958
67	0xbcdb1a3f	-0.026745914
68	0xbcde8f3d	-0.02716791
69	0x3caaf310	0.020867854
70	0xbd0052c6	-0.03132894
71	0x3ceec0c1	0.029144647
72	0xbcec5a69	-0.028851705
73	0xbd5fb5a7	-0.054616597
74	0xbc6abfb5	-0.014327933
75	0xbbbaca9a	-0.0057004215
76	0xbd5c28dd	-0.053749908
77	0x3d258be7	0.040416624
78	0xbc1e7b4b	-0.00967295
79	0x3bdf31e1	0.006811366
80	0xbbcaea55	-0.0061924853
81	0xbd91a6d5	-0.07111899
82	0xbd20ad33	-0.039227676
83	0xbd78269a	-0.06058369
84	0xbd84f276	-0.06491558
85	0xbd8bf32b	-0.0683349
86	0x3cc34540	0.023836732
87	0xbd392576	-0.04520174
88	0xbd10f6f4	-0.035391763
89	0xbd2e8fb0	-0.0426175
90	0x3ce5bdf4	0.028044678
91	0xbdaa0483	-0.08301642
92	0x3d0c2504	0.03421499
93	0xbd07d20b	-0.033159297
94	0x3c58a8d4	0.0132238455
95	0x3bc6bc39	0.0060649184
96	0xbd4f96eb	-0.050681036
97	0xba98c9c4	-0.001165681
98	0xbc32dfbc	-0.0109176
99	0xbd2d0612	-0.042242117
100	0xbd3761a7	-0.044770863
101	0x3c844162	0.016144458
102	0xbd9f7d2a	-0.07787545
103	0xbc74844d	-0.014924121
104	0xbd015ba4	-0.031581536
105	0xbd34ef6a	-0.044173636
106	0xbd0b3526	-0.033986233
107	0xbcde1f47	-0.027114524
108	0xbd0f6fc5	-0.0350187
109	0xbd6e13fd	-0.05812453
110	0xbd954192	-0.07287897
111	0xbd9efa81	-0.077626236
112	0xbcc791ad	-0.024361456
113	0xbc813b04	-0.015775211
114	0xbd8ee4a1	-0.06977201
115	0xbd3dad18	-0.046307653
116	0x3c3d9c1a	0.011572862
117	0xbd71c060	-0.059021354
118	0xbdb2502c	-0.08706698
119	0xbc0e1bba	-0.008673603
120	0xbc668ef6	-0.0140721705
121	0x3cd16e82	0.02556539
122	0xbcf6c05a	-0.030121017
123	0xbd2ab504	-0.041676536
124	0xbd882559	-0.066477485
125	0x3b507051	0.0031805227
126	0xbd018404	-0.03162004
127	0xbd17db64	-0.03707446

sequential_3/dense_7/BiasAdd/ReadVariableOp f4 [10]
0	0x3abd80ee	0.001445798
1	0xbbbeae2d	-0.005819103
2	0xbd8ee2b4	-0.06976834
3	0x3a4565ac	0.0007530104
4	0x3b0ac339	0.002117349
5	0x3d0f8516	0.03503903
6	0xbd5f3ee6	-0.054503344
7	0xbcf23c6d	-0.029569829
8	0xbd5a960f	-0.053365763
9	0x3da0e16b	0.07855495

sequential_3/conv2d_12/BiasAdd/ReadVariableOp f4 [32]
0	0x394f5f72	0.00019776614
1	0xbc43dec1	-0.011954964
2	0xbc8224ae	-0.01588663
3	0x3c9095cf	0.01764956
4	0x3bc04858	0.005867999
5	0x3b7fc20f	0.003902558
6	0xbb6cac6b	-0.0036113511
7	0xbc6dfe35	-0.01452594
8	0x3c66ccb2	0.014086889
9	0x3b618643	0.0034412302
10	0x3aade62b	0.0013267448
11	0xbc43761a	-0.011930013
12	0xbc6498dc	-0.01395246
13	0xbca4e407	-0.020128263
14	0x3b461065	0.0030222174
15	0x3d01a7c9	0.031654153
16	0x3c8fa708	0.017535701
17	0x3c256779	0.010095471
18	0x3ba9d5ea	0.0051829712
19	0xba8ffdae	-0.0010985637
20	0x3bf028d9	0.007329088
21	0x3c0263df	0.007958381
22	0x3c98e45c	0.018663578
23	0x3c258985	0.010103588
24	0x3c75db4e	0.0150059
25	0x3971c068	0.00023055228
26	0xbc86b0da	-0.016441751
27	0xbc92a651	-0.017901571
28	0xbc2e81a1	-0.010651023
29	0x3b63b3cc	0.0034744618
30	0x3bd91d77	0.006625827
31	0xbd62b4b5	-0.055348117

sequential_3/conv2d_13/BiasAdd/ReadVariableOp f4 [32]
0	0x3c083d8b	0.008315454
1	0xb999624e	-0.00029255677
2	0x3c610c57	0.013735852
3	0xbb440c90	-0.0029914714
4	0x3c53e6bf	0.012933432
5	0x3c263852	0.010145264
6	0x3c73c7fe	0.014879225
7	0x3b0317ec	0.0020003272
8	0xbb54bd59	-0.0032461493
9	0xbd0fdbe7	-0.035121825
10	0x3c56de4a	0.013114521
11	0xbca3e735	-0.020007709
12	0x3d1a1b03	0.037623417
13	0xbbe41a78	-0.006961163
14	0x3ceb51c9	0.028725522
15	0x3d7a6b53	0.06113751
16	0x3d06bf90	0.032897532
17	0xbbac324e	-0.00525502
18	0xbb83c3d3	-0.004021147
19	0x3beda16f	0.0072519104
20	0xba51945a	-0.00079948234
21	0x3c811bab	0.015760263
22	0x3c8133fe	0.015771862
23	0xbbb0c725	-0.0053948336
24	0xbcba097c	-0.0227096
25	0x3b42d299	0.0029727577
26	0x3cab58da	0.020916391
27	0xbd5264d2	-0.05136568
28	0x3b044d0e	0.002018753
29	0x3b1d18ba	0.0023971037
30	0x3c614bd5	0.01375099
31	0x3cd6cd89	0.026221054

sequential_3/conv2d_14/BiasAdd/ReadVariableOp f4 [64]
0	0x3bff7f10	0.0077971295
1	0xbca5f879	-0.020260083
2	0x3c86f2a9	0.016473131
3	0x3c840fc7	0.016120804
4	0x3c8ba190	0.017044812
5	0x3d25ba59	0.040460918
6	0xbd7a7f4d	-0.06115656
7	0x3c432765	0.011911248
8	0x3bc1633e	0.005901723
9	0xbcd62c35	-0.026144126
10	0x3c99cdaa	0.018774826
11	0xbd299b8d	-0.04140811
12	0x3c844854	0.01614777
13	0xbc5b254e	-0.013375593
14	0x3d59751b	0.053090196
15	0x3cb5e34e	0.022203114
16	0x3aa5dc56	0.0012654166
17	0xbd008932	-0.03138084
18	0xbc3014af	-0.010747119
19	0x3c3e783d	0.011625347
20	0xbcdfbb49	-0.027310984
21	0xbc0f43f1	-0.008744226
22	0x3cb1a546	0.021685254
23	0xbbda4b0a	-0.0066617774
24	0xbcf7619d	-0.030197913
25	0xbcd8a42c	-0.02644547
26	0x3cb9d785	0.022685776
27	0x390ace66	0.00013237595
28	0xbd57700c	-0.05259709
29	0x3cc8e7c6	0.02452458
30	0x3ca026a1	0.01954967
31	0x3cf9a9fc	0.030476563
32	0x3d0ad6a7	0.033896115
33	0xbc8c40e6	-0.01712079
34	0x3ceea3af	0.029130785
35	0x3d48b54b	0.04900102
36	0xbc8294e2	-0.015940133
37	0x3d207642	0.03917528
38	0x3cc9dd45	0.024641642
39	0x3c4e7bdf	0.012602775
40	0xbc77aad6	-0.015116414
41	0x3d466314	0.048434332
42	0x3d339fbb	0.043853503
43	0xbca76153	-0.02043215
44	0x3dbb257b	0.09138008
45	0x3be76408	0.007061485
46	0xbad36d2c	-0.0016130558
47	0x3cd1f941	0.025631549
48	0x3d2af823	0.041740548
49	0x3d1dd1c8	0.03853014
50	0x3d0ef87f	0.034904953
51	0x3d0b9ed0	0.034087002
52	0x3c6157ca	0.013753841
53	0x3c5a1c0d	0.013312352
54	0xbd146b05	-0.036234874
55	0xbcd944aa	-0.026522
56	0x3b75e21b	0.0037518803
57	0xbcf809d0	-0.030278116
58	0xbd05e02f	-0.0326845
59	0x3d2b9b77	0.04189631
60	0xbcb12c1e	-0.021627482
61	0xbbac089f	-0.005250051
62	0x3ba1684d	0.0049257637
63	0x3cc3c0f4	0.023895718

sequential_3/conv2d_15/BiasAdd/ReadVariableOp f4 [64]
0	0x3c4c0cb4	0.012454201
1	0xbd030b06	-0.031992935
2	0xbc460f4d	-0.012088609
3	0xbcaeb7c2	-0.021327857
4	0xbcaa095f	-0.020756422
5	0xbc7ab6bd	-0.015302357
6	0x3cbbc45a	0.022920776
7	0xbce21ff9	-0.027603136
8	0x3c39a08f	0.011329784
9	0x3b833991	0.004004665
10	0x3cc186ff	0.023623941
11	0xbccf6c6e	-0.025320258
12	0x3c7115c2	0.01471466
13	0xbc82fd08	-0.015989795
14	0x3d1e2df4	0.038618043
15	0xbc1ddc2c	-0.009635013
16	0x3d21eca6	0.039532326
17	0x3d8d1e25	0.06890515
18	0xbd118618	-0.035528272
19	0x3b07c41c	0.0020716256
20	0x3c545be6	0.012961363
21	0xbd104901	-0.035225872
22	0x3d105358	0.035235733
23	0xbcd50111	-0.026001485
24	0xbcfdc7a9	-0.030978994
25	0xbc9f48f4	-0.019443966
26	0xbba6d49f	-0.0050912644
27	0x3bd7d1fa	0.0065863105
28	0xbd4ccc68	-0.049999624
29	0xbcbfbe1b	-0.023406079
30	0x3a871248	0.0010305131
31	0xbc79e178	-0.01525151
32	0xbd63e5a1	-0.055638913
33	0x3c1a217e	0.009407399
34	0xbab48024	-0.0013771099
35	0xbbd61a80	-0.0065339208
36	0xbc0d93ed	-0.008641225
37	0x3d67effb	0.056625348
38	0xbc6de6dd	-0.014520374
39	0xba850e98	-0.0010151444
40	0xbd10c526	-0.035344265
41	0x3ccd5a7d	0.025067562
42	0xbd58cc38	-0.052929133
43	0x3d0c726b	0.034288805
44	0xbca7e1f7	-0.02049349
45	0x3c9c87d7	0.019107742
46	0xbc0e50b2	-0.008686231
47	0xbc561c17	-0.013068221
48	0x3c7802f6	0.015137425
49	0xbcc12ed5	-0.023581902
50	0x3c97c3fc	0.01852607
51	0x3ba4f840	0.0050344765
52	0x3cbc8350	0.023011833
53	0x3a200e1a	0.0006105617
54	0xbd0c4ab4	-0.03425093
55	0x3d017864	0.031608954
56	0x3b00ec8c	0.0019672243
57	0x3c3849ee	0.011248095
58	0x3d2b2d39	0.041791175
59	0x3d429caa	0.047512688
60	0x3c8788a7	0.016544653
61	0x3c1fd664	0.009755705
62	0x3c844cb0	0.016149849
63	0xbc72790f	-0.01479937

sequential_3/conv2d_12/Conv2D f4 [32, 5, 5, 1]
0	0x3d44fb8e	0.048091464
1	0x3d0597cf	0.03261548
2	0x3db58fa4	0.08865288
3	0xbdbc6851	-0.09199584
4	0x3cedbd88	0.02902104
5	0xbe37c185	-0.17944916
6	0xbda5520d	-0.080722906
7	0x3df6c4a6	0.120492265
8	0xbd77791f	-0.060418244
9	0xbd19ea92	-0.03757722
10	0xbe0d46b9	-0.1379651
11	0x3e1df560	0.15425634
12	0x3de2311c	0.11044523
13	0x3c717e2b	0.014739553
14	0xbc6edab8	-0.014578514
15	0x3dcaaa22	0.098957315
16	0x3c8895f5	0.016673068
17	0xbd73c7b3	-0.05951662
18	0x3c71d6ff	0.014760732
19	0xbaa12271	-0.001229359
20	0xbca012b4	-0.019540168
21	0xbe20cc06	-0.15702829
22	0xbd89ea3e	-0.06734131
23	0x3ca1d0c5	0.01975287
24	0xbc198bd2	-0.009371715
25	0xbd00ce54	-0.03144677
26	0xba77c5fc	-0.0009451804
27	0x3d447d77	0.047971215
28	0xbd88bf70	-0.06677139
29	0x3c13f05e	0.009029476
30	0x3d90b678	0.07066053
31	0x3da97766	0.082747266
32	0x3d714c64	0.058910742
33	0xbc0eed2a	-0.0087235365
34	0xbd56534f	-0.052325543
35	0xbdaed6bf	-0.08537053
36	0xbe858b8e	-0.26083034
37	0xbe214305	-0.15748222
38	0x3d1259df	0.03573024
39	0x3d2246ec	0.039618418
40	0x3cea4242	0.028596047
41	0x3ce03c96	0.02737264
42	0x3b203c7e	0.0024450119
43	0x3ddd7191	0.10812677
44	0xbd55643b	-0.05209754
45	0x3d1fd8b8	0.03902504
46	0x3d839a0a	0.06425865
47	0x3db2145e	0.08695291
48	0x3ad69262	0.001637053
49	0x3ccf715f	0.025322614
50	0x3d95f314	0.07321754
51	0x3cc8a6b6	0.024493556
52	0xbe041e98	-0.12902296
53	0x3d631f8c	0.055450007
54	0x3dc24d82	0.0948744
55	0xbd365da4	-0.044522896
56	0xbd711db7	-0.05886623
57	0x3d6b0c3a	0.057384707
58	0x3ccfaba4	0.0253504
59	0x3d4bb746	0.04973533
60	0xbd4f568b	-0.050619643
61	0xbc0c4c44	-0.008563105
62	0x3e09413d	0.13403793
63	0xbceb6e59	-0.028739141
64	0xbdacd54f	-0.08439123
65	0xbc5f7b2b	-0.013640205
66	0xbda5fb9b	-0.081046306
67	0xbdd65cac	-0.104668945
68	0xbdca7f61	-0.09887577
69	0x3ce1f309	0.027581709
70	0x3ceb40cc	0.028717421
71	0xbce4953d	-0.027903194
72	0x3c962380	0.018327475
73	0x3d2b5918	0.041833013
74	0xbd148580	-0.036260128
75	0xbe073943	-0.13205437
76	0xbe30a82f	-0.17251657
77	0xbd75a7c1	-0.059974436
78	0x3caa350e	0.020777252
79	0xba7115cc	-0.00091966684
80	0xbe219668	-0.15780032
81	0x3d02fe79	0.031980965
82	0xbdc00352	-0.09375633
83	0x3daf03b0	0.08545625
84	0xbb9eb47e	-0.0048432937
85	0x3d2b433c	0.041812167
86	0x3e5cb565	0.21553572
87	0x3d68dde0	0.05685222
88	0x3d2d53f6	0.0423164
89	0xbb99bd8d	-0.0046917857
90	0xbd83fe7b	-0.06445023
91	0x3c3e9fbf	0.011634766
92	0xbde54694	-0.11195102
93	0x3c18c188	0.009323485
94	0xbd39579f	-0.045249578
95	0xbc329318	-0.010899328
96	0xbc017fd4	-0.007904012
97	0x3d537599	0.05162582
98	0xbc81336e	-0.015771594
99	0x3d4acde5	0.049512763
100	0xbcc4cb9c	-0.02402287
101	0xbdb66134	-0.08905259
102	0x3db6ab43	0.08919384
103	0xbd2a7a7a	-0.04162071
104	0x3acdf906	0.0015714474
105	0x3d880ae8	0.06642705
106	0xbdaa21a0	-0.08307195
107	0xbce2172e	-0.027598944
108	0xbd9dcddb	-0.077052794
109	0xbc52b8fe	-0.012861488
110	0x3de3216e	0.110903606
111	0x3ddfadde	0.109218344
112	0x3cdf82d5	0.027284065
113	0xbcb38201	-0.021912577
114	0xbdef928a	-0.11697872
115	0xbd8d062d	-0.068859436
116	0x3d7d89c0	0.061898947
117	0xbba70fe2	-0.005098329
118	0xbd977dd0	-0.07397044
119	0xbdf26132	-0.11834945
120	0xbdf00a91	-0.117207654
121	0xbc8b14b7	-0.016977651
122	0x3bf36d76	0.0074288202
123	0xbe272b7f	-0.16325186
124	0xbd9101cd	-0.070804216
125	0xbdae5db9	-0.0851397
126	0xbd608837	-0.054817405
127	0xbd386afa	-0.045023896
128	0x3d21cc59	0.03950152
129	0x3d1633fb	0.036670666
130	0x3e1f662e	0.15566322
131	0xbd17668b	-0.036963027
132	0x3cd5518a	0.026039857
133	0xbdcca2da	-0.09991999
134	0xbd00cb6b	-0.031443994
135	0xbe3080ce	-0.17236635
136	0x3d6dd666	0.058065794
137	0x3d8a1d7f	0.06743907
138	0xbd02d880	-0.03194475
139	0xbe09a72b	-0.13442676
140	0x3d9eb609	0.07749564
141	0x3c9dba4e	0.019253876
142	0xbd6593b9	-0.056049082
143	0x3d51d6cb	0.051230233
144	0xbe0dad13	-0.13835554
145	0x3d5967bc	0.053077444
146	0xbd1b2588	-0.03787759
147	0x3bebdab4	0.0071977023
148	0x3d4d6e0e	0.050153784
149	0xbc8612c5	-0.016366372
150	0xbb2ae2e6	-0.0026075183
151	0xbe1f82f7	-0.15577303
152	0x3d9aaa24	0.07551983
153	0xbd03be70	-0.032164037
154	0x3d5ea057	0.05435213
155	0x3da040e0	0.07824874
156	0xbd7c03be	-0.061527006
157	0x3ddef7af	0.10887086
158	0x3c316b39	0.0108287865
159	0xbcf5a2f1	-0.029984923
160	0x3d37a2f1	0.044833127
161	0xbd65bccc	-0.056088254
162	0xbd5d478b	-0.054023307
163	0xbc22363a	-0.009900624
164	0x3cee6432	0.029100511
165	0xbd1e1b02	-0.038599975
166	0xbd4bb5d8	-0.049733967
167	0xbcf6b031	-0.030113311
168	0xbdc395c4	-0.0955005
169	0xbdcc9418	-0.09989184
170	0xbc7d7cb1	-0.015471623
171	0x3cef9e98	0.029250428
172	0xbd03c0a6	-0.032166146
173	0xbca241b5	-0.019806722
174	0x3c454a59	0.012041652
175	0xbddca64e	-0.107739076
176	0xbc99e2ad	-0.018784845
177	0xbcf42b93	-0.029805934
178	0x3d167180	0.036729336
179	0xbd94e3f0	-0.07270038
180	0x3cc089ab	0.023503145
181	0xbdc03134	-0.09384385
182	0x3cfd59d1	0.030926617
183	0x3d27612b	0.04086415
184	0xbdf8c3d1	-0.12146724
185	0x3c8fa346	0.01753391
186	0x3d87920a	0.066196516
187	0xbcece1d5	-0.028916279
188	0x3d98fa01	0.074695595
189	0x3c0032f8	0.007824652
190	0xbd5ff480	-0.054676533
191	0xbcc3e668	-0.023913577
192	0xbe2c80d7	-0.16846023
193	0x3d830ba9	0.063987084
194	0x3d821f8e	0.06353675
195	0xbdc74372	-0.09729661
196	0x3cf5fa84	0.030026682
197	0x3d464d64	0.04841365
198	0xbba3063f	-0.00497511
199	0xbd97dad4	-0.07414785
200	0xbef1c6ab	-0.47221884
201	0xbf5a48b1	-0.8526717
202	0xbdb88fd2	-0.090118065
203	0x3daa5106	0.08316235
204	0x3d120da7	0.03565755
205	0xbe2fedd9	-0.17180575
206	0xbe8cb985	-0.2748529
207	0xbce58f1d	-0.028022343
208	0x3c34eed4	0.011043269
209	0xbca431a5	-0.020043204
210	0x3c0d3b79	0.008620136
211	0x3d2a7fbd	0.041625727
212	0xbdc61493	-0.09671893
213	0x3d9a49d3	0.07533612
214	0x3d44795b	0.047967296
215	0xbdb477e8	-0.08811933
216	0xbc25c727	-0.010118282
217	0xbce2daf5	-0.027692297
218	0xbd480d95	-0.048841078
219	0xbdd4c8e7	-0.103898816
220	0x3bd326cf	0.0064438353
221	0x3d900790	0.070326924
222	0x3da0ef15	0.07858101
223	0xbd261d22	-0.040555127
224	0x3d7be18f	0.061494406
225	0xbe21fef2	-0.1581991
226	0xbadc6c29	-0.0016816902
227	0x3daca91d	0.08430693
228	0xbd9a7e59	-0.0754363
229	0xbc59c40a	-0.013291368
230	0xbd9ff06f	-0.07809531
231	0x3c47cde1	0.012195081
232	0xbbf9051e	-0.007599487
233	0xbc99d659	-0.018778967
234	0x3d63c2b0	0.05560559
235	0x3d60ac70	0.05485195
236	0x3ddc7196	0.10763852
237	0xbcef3357	-0.029199285
238	0x3bceb566	0.0063082455
239	0xbd962355	-0.07330958
240	0xbc8fba6a	-0.017544944
241	0xbd73e971	-0.0595488
242	0xbcc18e7a	-0.023627508
243	0x3d61af53	0.055098843
244	0xbd48c79d	-0.04901849
245	0x3bec787c	0.0072165113
246	0xbcc9acab	-0.024618467
247	0x3d978399	0.07398147
248	0xbcd5861f	-0.02606493
249	0xbc7b3da0	-0.015334517
250	0x3c67b154	0.014141399
251	0xbdbbc8fa	-0.091691926
252	0xbe875e5f	-0.26439187
253	0xbd5def81	-0.054183487
254	0xbbf87cfd	-0.007583259
255	0x3e266eb8	0.16253173

sequential_3/conv2d_13/Conv2D i1 [32, 5, 5, 32]
0	0xfe	-2
1	0x19	25
2	0x13	19
3	0x37	55
4	0xec	-20
5	0xf8	-8
6	0x27	39
7	0x1a	26
8	0x12	18
9	0x20	32
10	0x0e	14
11	0xeb	-21
12	0x22	34
13	0xfe	-2
14	0x06	6
15	0x09	9
16	0x28	40
17	0x27	39
18	0xdb	-37
19	0x04	4
20	0xfc	-4
21	0x01	1
22	0x05	5
23	0xf6	-10
24	0xeb	-21
25	0x36	54
26	0xf2	-14
27	0xb0	-80
28	0x04	4
29	0xda	-38
30	0xdf	-33
31	0xcf	-49
32	0xdf	-33
33	0x18	24
34	0x0c	12
35	0x35	53
36	0xda	-38
37	0xfd	-3
38	0xfb	-5
39	0x0c	12
40	0x19	25
41	0x1b	27
42	0x00	0
43	0xc9	-55
44	0x14	20
45	0xdd	-35
46	0xdf	-33
47	0xfa	-6
48	0xf6	-10
49	0x0b	11
50	0xbd	-67
51	0xfd	-3
52	0x24	36
53	0xd4	-44
54	0xf6	-10
55	0x0c	12
56	0xe6	-26
57	0x1e	30
58	0x11	17
59	0x9d	-99
60	0xe7	-25
61	0xdc	-36
62	0xdf	-33
63	0xd4	-44
64	0xef	-17
65	0x1a	26
66	0x13	19
67	0x12	18
68	0xd5	-43
69	0x09	9
70	0xfc	-4
71	0xf3	-13
72	0x20	32
73	0xc8	-56
74	0x0e	14
75	0xc6	-58
76	0x15	21
77	0xf6	-10
78	0xe2	-30
79	0x0a	10
80	0xf1	-15
81	0xfc	-4
82	0xd5	-43
83	0x22	34
84	0x13	19
85	0xee	-18
86	0x04	4
87	0x24	36
88	0x07	7
89	0xe5	-27
90	0x12	18
91	0xee	-18
92	0x00	0
93	0x12	18
94	0xce	-50
95	0xbd	-67
96	0x1b	27
97	0x11	17
98	0x2b	43
99	0xdd	-35
100	0x01	1
101	0x09	9
102	0x20	32
103	0xd0	-48
104	0xfc	-4
105	0xca	-54
106	0x05	5
107	0xd4	-44
108	0x0d	13
109	0x19	25
110	0x0c	12
111	0x0e	14
112	0xde	-34
113	0x07	7
114	0xee	-18
115	0xf7	-9
116	0xfd	-3
117	0xe6	-26
118	0x23	35
119	0x1e	30
120	0x04	4
121	0xf6	-10
122	0x10	16
123	0xed	-19
124	0xf0	-16
125	0x25	37
126	0xd4	-44
127	0xe6	-26
128	0x11	17
129	0x1d	29
130	0xf4	-12
131	0x0d	13
132	0xec	-20
133	0xfb	-5
134	0xea	-22
135	0xdb	-37
136	0xf5	-11
137	0xe8	-24
138	0xe6	-26
139	0xe5	-27
140	0x10	16
141	0x27	39
142	0xff	-1
143	0x09	9
144	0xf8	-8
145	0xfd	-3
146	0xfb	-5
147	0x21	33
148	0xf8	-8
149	0x04	4
150	0x12	18
151	0x2e	46
152	0x0c	12
153	0x0b	11
154	0x07	7
155	0xfe	-2
156	0xe7	-25
157	0x1c	28
158	0x1b	27
159	0x12	18
160	0xcc	-52
161	0x21	33
162	0xe7	-25
163	0xba	-70
164	0xe1	-31
165	0xfc	-4
166	0xdf	-33
167	0xe0	-32
168	0xe5	-27
169	0xda	-38
170	0x27	39
171	0xd8	-40
172	0xc1	-63
173	0xef	-17
174	0xfe	-2
175	0x24	36
176	0xb9	-71
177	0xf1	-15
178	0xe9	-23
179	0xef	-17
180	0xdf	-33
181	0xdf	-33
182	0xe8	-24
183	0xea	-22
184	0xd2	-46
185	0xe7	-25
186	0xe1	-31
187	0xe2	-30
188	0x81	-127
189	0xf6	-10
190	0x11	17
191	0xd2	-46
192	0xb5	-75
193	0x24	36
194	0x14	20
195	0xdf	-33
196	0xe5	-27
197	0xf9	-7
198	0xc7	-57
199	0xa5	-91
200	0xee	-18
201	0xbe	-66
202	0x06	6
203	0xd5	-43
204	0xe0	-32
205	0x14	20
206	0x15	21
207	0x0a	10
208	0xc2	-62
209	0xc6	-58
210	0xe5	-27
211	0xf6	-10
212	0xdb	-37
213	0xb5	-75
214	0xda	-38
215	0x13	19
216	0x02	2
217	0xd1	-47
218	0xdb	-37
219	0xfe	-2
220	0xe3	-29
221	0x16	22
222	0x09	9
223	0xec	-20
224	0xec	-20
225	0x25	37
226	0x23	35
227	0xfd	-3
228	0xa0	-96
229	0x1c	28
230	0xb5	-75
231	0x98	-104
232	0xf9	-7
233	0xdd	-35
234	0x08	8
235	0xdf	-33
236	0xf1	-15
237	0x13	19
238	0x22	34
239	0x1d	29
240	0xf7	-9
241	0xe2	-30
242	0xc1	-63
243	0x16	22
244	0xf4	-12
245	0xf8	-8
246	0x15	21
247	0x1c	28
248	0x0b	11
249	0xcd	-51
250	0xf0	-16
251	0x02	2
252	0xfb	-5
253	0x1f	31
254	0x0d	13
255	0xc8	-56

sequential_3/conv2d_14/Conv2D i1 [64, 3, 3, 32]
0	0xbc	-68
1	0xf0	-16
2	0x0f	15
3	0xd4	-44
4	0xea	-22
5	0xf7	-9
6	0x9e	-98
7	0xcf	-49
8	0x05	5
9	0x28	40
10	0xef	-17
11	0x21	33
12	0x12	18
13	0xd8	-40
14	0xc6	-58
15	0xe7	-25
16	0xf8	-8
17	0xd8	-40
18	0x26	38
19	0xf6	-10
20	0x30	48
21	0x18	24
22	0xb6	-74
23	0x18	24
24	0xa8	-88
25	0x28	40
26	0x00	0
27	0xda	-38
28	0x1e	30
29	0xe7	-25
30	0xf5	-11
31	0xf2	-14
32	0x33	51
33	0x1f	31
34	0x1b	27
35	0xe1	-31
36	0x22	34
37	0x12	18
38	0xe0	-32
39	0xfe	-2
40	0x10	16
41	0x04	4
42	0x00	0
43	0xc1	-63
44	0xf9	-7
45	0xbe	-66
46	0xe5	-27
47	0xfe	-2
48	0xf0	-16
49	0xfe	-2
50	0xe3	-29
51	0xeb	-21
52	0xe5	-27
53	0xf6	-10
54	0x07	7
55	0x03	3
56	0xec	-20
57	0xe2	-30
58	0x2b	43
59	0xde	-34
60	0x1b	27
61	0x12	18
62	0xe0	-32
63	0x1e	30
64	0x31	49
65	0xe0	-32
66	0xae	-82
67	0xe8	-24
68	0xca	-54
69	0x08	8
70	0x1e	30
71	0xb9	-71
72	0xee	-18
73	0xa8	-88
74	0x29	41
75	0xb1	-79
76	0xdf	-33
77	0x06	6
78	0xf3	-13
79	0x08	8
80	0xda	-38
81	0xf4	-12
82	0xd5	-43
83	0xda	-38
84	0xdf	-33
85	0xe4	-28
86	0xc9	-55
87	0x02	2
88	0x27	39
89	0x84	-124
90	0x0f	15
91	0xa1	-95
92	0xfa	-6
93	0xe2	-30
94	0xd4	-44
95	0xf8	-8
96	0x06	6
97	0x28	40
98	0x06	6
99	0x13	19
100	0x24	36
101	0x05	5
102	0x0f	15
103	0x0d	13
104	0x1c	28
105	0x27	39
106	0xe2	-30
107	0x06	6
108	0xe1	-31
109	0xf3	-13
110	0xe0	-32
111	0xcb	-53
112	0xb5	-75
113	0x0b	11
114	0xcb	-53
115	0xd2	-46
116	0xe5	-27
117	0x25	37
118	0xfb	-5
119	0x26	38
120	0x08	8
121	0xe6	-26
122	0x0b	11
123	0xf0	-16
124	0xf1	-15
125	0x1a	26
126	0xe4	-28
127	0x06	6
128	0xfe	-2
129	0x1c	28
130	0x05	5
131	0x00	0
132	0x33	51
133	0xf5	-11
134	0x24	36
135	0x2a	42
136	0x09	9
137	0xf1	-15
138	0x0f	15
139	0xf7	-9
140	0xee	-18
141	0xf7	-9
142	0xea	-22
143	0x16	22
144	0x9f	-97
145	0xcf	-49
146	0x1c	28
147	0xa9	-87
148	0xdc	-36
149	0xe4	-28
150	0xed	-19
151	0x00	0
152	0xe5	-27
153	0xd4	-44
154	0x20	32
155	0xae	-82
156	0x24	36
157	0xf7	-9
158	0xc1	-63
159	0x11	17
160	0x26	38
161	0xd7	-41
162	0xf4	-12
163	0xe6	-26
164	0xe9	-23
165	0x03	3
166	0x0d	13
167	0xf8	-8
168	0xeb	-21
169	0xcf	-49
170	0x17	23
171	0x87	-121
172	0x2d	45
173	0x00	0
174	0x25	37
175	0x24	36
176	0xd5	-43
177	0xe0	-32
178	0xe6	-26
179	0xdf	-33
180	0xf9	-7
181	0xf6	-10
182	0xda	-38
183	0xf9	-7
184	0xee	-18
185	0xf1	-15
186	0xe0	-32
187	0x81	-127
188	0xf4	-12
189	0xc8	-56
190	0x90	-112
191	0xd7	-41
192	0xe2	-30
193	0x07	7
194	0x02	2
195	0xff	-1
196	0x0c	12
197	0x01	1
198	0xea	-22
199	0xfa	-6
200	0xe0	-32
201	0xe7	-25
202	0x31	49
203	0xf3	-13
204	0xe1	-31
205	0x27	39
206	0x0f	15
207	0x29	41
208	0xf3	-13
209	0xe2	-30
210	0xea	-22
211	0xf8	-8
212	0xf2	-14
213	0x1f	31
214	0xac	-84
215	0x2f	47
216	0xd4	-44
217	0x22	34
218	0x02	2
219	0x1c	28
220	0x25	37
221	0x2e	46
222	0xeb	-21
223	0x0c	12
224	0xcf	-49
225	0xcf	-49
226	0xf0	-16
227	0xf3	-13
228	0x1d	29
229	0x1a	26
230	0xbb	-69
231	0x06	6
232	0xf4	-12
233	0xf5	-11
234	0x19	25
235	0x25	37
236	0xf0	-16
237	0x00	0
238	0xe1	-31
239	0x1c	28
240	0xf6	-10
241	0xdb	-37
242	0x36	54
243	0xea	-22
244	0x00	0
245	0x41	65
246	0xb6	-74
247	0x04	4
248	0xba	-70
249	0x1f	31
250	0xf1	-15
251	0x0e	14
252	0x1c	28
253	0x1f	31
254	0x2f	47
255	0x0e	14

sequential_3/conv2d_15/Conv2D i1 [64, 3, 3, 64]
0	0x40	64
1	0xd3	-45
2	0xfe	-2
3	0xd8	-40
4	0x1a	26
5	0xc1	-63
6	0x4c	76
7	0xca	-54
8	0x01	1
9	0x4a	74
10	0x06	6
11	0x1b	27
12	0xf0	-16
13	0xf4	-12
14	0xec	-20
15	0x0b	11
16	0xf4	-12
17	0x04	4
18	0x04	4
19	0x43	67
20	0x17	23
21	0x08	8
22	0xcf	-49
23	0x0e	14
24	0x3a	58
25	0x22	34
26	0xc1	-63
27	0xf3	-13
28	0x21	33
29	0xe0	-32
30	0xc7	-57
31	0x08	8
32	0x5b	91
33	0x4a	74
34	0x07	7
35	0x0a	10
36	0x7f	127
37	0xb1	-79
38	0xde	-34
39	0x18	24
40	0x14	20
41	0xb3	-77
42	0xdb	-37
43	0x0d	13
44	0xec	-20
45	0x9a	-102
46	0xf6	-10
47	0x25	37
48	0x17	23
49	0xac	-84
50	0xe0	-32
51	0x51	81
52	0xfb	-5
53	0xcf	-49
54	0x03	3
55	0xee	-18
56	0x0a	10
57	0xfc	-4
58	0xdb	-37
59	0xef	-17
60	0xcd	-51
61	0xfc	-4
62	0xfa	-6
63	0xf1	-15
64	0xfd	-3
65	0xd9	-39
66	0xf6	-10
67	0xaf	-81
68	0xce	-50
69	0x15	21
70	0x2d	45
71	0x08	8
72	0x27	39
73	0x50	80
74	0xb7	-73
75	0xe0	-32
76	0x01	1
77	0x23	35
78	0xc6	-58
79	0x84	-124
80	0xfb	-5
81	0xdc	-36
82	0x42	66
83	0x32	50
84	0xef	-17
85	0xaf	-81
86	0xcf	-49
87	0xe0	-32
88	0xf0	-16
89	0x23	35
90	0x28	40
91	0xef	-17
92	0xaa	-86
93	0xf5	-11
94	0xfa	-6
95	0xec	-20
96	0x34	52
97	0xe6	-26
98	0x25	37
99	0xdc	-36
100	0x2b	43
101	0x08	8
102	0xf0	-16
103	0xf1	-15
104	0xc0	-64
105	0xb4	-76
106	0x98	-104
107	0x0d	13
108	0x0e	14
109	0xda	-38
110	0x9f	-97
111	0xf5	-11
112	0x2f	47
113	0xe4	-28
114	0xe7	-25
115	0x00	0
116	0xf7	-9
117	0xe7	-25
118	0x01	1
119	0x06	6
120	0xf0	-16
121	0x06	6
122	0xd5	-43
123	0xcf	-49
124	0xfe	-2
125	0xf3	-13
126	0x1d	29
127	0x11	17
128	0x0d	13
129	0x15	21
130	0x01	1
131	0x84	-124
132	0x23	35
133	0xd6	-42
134	0xce	-50
135	0xf0	-16
136	0xab	-85
137	0xbf	-65
138	0x0c	12
139	0x4d	77
140	0x03	3
141	0x14	20
142	0xf7	-9
143	0x93	-109
144	0xfb	-5
145	0x03	3
146	0x1a	26
147	0x3a	58
148	0xd4	-44
149	0x0a	10
150	0xf7	-9
151	0x08	8
152	0x0f	15
153	0xe9	-23
154	0x39	57
155	0x39	57
156	0xfe	-2
157	0xee	-18
158	0x07	7
159	0xcc	-52
160	0xcb	-53
161	0xfb	-5
162	0x1d	29
163	0x0d	13
164	0x39	57
165	0x1d	29
166	0x3c	60
167	0x23	35
168	0xf5	-11
169	0xdc	-36
170	0x25	37
171	0x04	4
172	0x0a	10
173	0x31	49
174	0xad	-83
175	0xf5	-11
176	0xf6	-10
177	0x15	21
178	0x39	57
179	0xd9	-39
180	0x88	-120
181	0x30	48
182	0xd2	-46
183	0x35	53
184	0x41	65
185	0xf3	-13
186	0x1f	31
187	0xfa	-6
188	0xe8	-24
189	0x41	65
190	0xfe	-2
191	0xd6	-42
192	0xc1	-63
193	0x1f	31
194	0xcd	-51
195	0x12	18
196	0x18	24
197	0xf2	-14
198	0x2d	45
199	0x20	32
200	0x9c	-100
201	0x21	33
202	0x0b	11
203	0x40	64
204	0xb1	-79
205	0x15	21
206	0x2c	44
207	0xda	-38
208	0x38	56
209	0xd9	-39
210	0x11	17
211	0xde	-34
212	0xde	-34
213	0xcb	-53
214	0xf2	-14
215	0x2b	43
216	0xe2	-30
217	0x02	2
218	0xe7	-25
219	0x24	36
220	0xdf	-33
221	0xf1	-15
222	0xc0	-64
223	0xda	-38
224	0x07	7
225	0xcc	-52
226	0xfe	-2
227	0x13	19
228	0x21	33
229	0xec	-20
230	0xf8	-8
231	0xae	-82
232	0x31	49
233	0x0c	12
234	0xbf	-65
235	0x1a	26
236	0x16	22
237	0x0e	14
238	0xb2	-78
239	0xe1	-31
240	0xf8	-8
241	0xbc	-68
242	0xf4	-12
243	0x18	24
244	0xfa	-6
245	0x1b	27
246	0x03	3
247	0x2e	46
248	0x25	37
249	0x4f	79
250	0x12	18
251	0xd8	-40
252	0x1e	30
253	0x23	35
254	0x3e	62
255	0xf1	-15

sequential_3/dense_6/MatMul i1 [128, 576] scale=0.0043174913 zero_point=0
0	0xec	-0.08634983
1	0x01	0.0043174913
2	0x1a	0.112254776
3	0xe9	-0.0993023
4	0xe5	-0.11657227
5	0x04	0.017269965
6	0xfc	-0.017269965
7	0xcc	-0.22450955
8	0xfb	-0.021587458
9	0xd6	-0.18133463
10	0xe7	-0.107937284
11	0x04	0.017269965
12	0xf9	-0.030222438
13	0xf7	-0.038857423
14	0xf7	-0.038857423
15	0x14	0.08634983
16	0x03	0.012952474
17	0xd2	-0.1986046
18	0x07	0.030222438
19	0x10	0.06907986
20	0xeb	-0.090667315
21	0xfa	-0.025904948
22	0xdb	-0.15974718
23	0x1b	0.11657227
24	0x09	0.038857423
25	0xec	-0.08634983
26	0xff	-0.0043174913
27	0x0b	0.047492404
28	0x20	0.13815972
29	0x00	0.0
30	0xf7	-0.038857423
31	0xe4	-0.12088975
32	0x1b	0.11657227
33	0x1c	0.12088975
34	0x09	0.038857423
35	0x16	0.09498481
36	0x1c	0.12088975
37	0x05	0.021587458
38	0x2f	0.20292209
39	0xfa	-0.025904948
40	0x29	0.17701714
41	0xe3	-0.12520725
42	0xfd	-0.012952474
43	0x16	0.09498481
44	0x16	0.09498481
45	0x0a	0.043174915
46	0xde	-0.1467947
47	0x11	0.07339735
48	0x11	0.07339735
49	0x02	0.008634983
50	0xe3	-0.12520725
51	0x1a	0.112254776
52	0x2b	0.18565212
53	0xff	-0.0043174913
54	0xeb	-0.090667315
55	0x01	0.0043174913
56	0x20	0.13815972
57	0x14	0.08634983
58	0x06	0.025904948
59	0x23	0.1511122
60	0xd9	-0.16838217
61	0x0d	0.056127388
62	0x1b	0.11657227
63	0xfa	-0.025904948
64	0xfd	-0.012952474
65	0x03	0.012952474
66	0x02	0.008634983
67	0xfa	-0.025904948
68	0xfa	-0.025904948
69	0x04	0.017269965
70	0x1a	0.112254776
71	0xfc	-0.017269965
72	0xde	-0.1467947
73	0xdc	-0.15542969
74	0x1e	0.12952474
75	0x0a	0.043174915
76	0x05	0.021587458
77	0xf7	-0.038857423
78	0x08	0.03453993
79	0x0a	0.043174915
80	0x11	0.07339735
81	0x0b	0.047492404
82	0xeb	-0.090667315
83	0xfc	-0.017269965
84	0xd1	-0.20292209
85	0xe7	-0.107937284
86	0xe1	-0.13384223
87	0xe8	-0.10361979
88	0x10	0.06907986
89	0x19	0.107937284
90	0xde	-0.1467947
91	0x01	0.0043174913
92	0xf9	-0.030222438
93	0x0a	0.043174915
94	0xf1	-0.06476237
95	0x1b	0.11657227
96	0xf3	-0.056127388
97	0x01	0.0043174913
98	0xfe	-0.008634983
99	0xf9	-0.030222438
100	0x16	0.09498481
101	0x35	0.22882704
102	0xfd	-0.012952474
103	0x25	0.15974718
104	0xf0	-0.06907986
105	0xe9	-0.0993023
106	0x0b	0.047492404
107	0x08	0.03453993
108	0x14	0.08634983
109	0x1f	0.13384223
110	0x1b	0.11657227
111	0x16	0.09498481
112	0x02	0.008634983
113	0x18	0.10361979
114	0x1e	0.12952474
115	0x0c	0.051809896
116	0x2e	0.1986046
117	0xf4	-0.051809896
118	0xf9	-0.030222438
119	0x0a	0.043174915
120	0xfc	-0.017269965
121	0x1a	0.112254776
122	0x10	0.06907986
123	0x10	0.06907986
124	0xff	-0.0043174913
125	0x09	0.038857423
126	0xff	-0.0043174913
127	0xe6	-0.112254776
128	0x18	0.10361979
129	0x0d	0.056127388
130	0xde	-0.1467947
131	0x01	0.0043174913
132	0xf2	-0.060444877
133	0x0c	0.051809896
134	0x1f	0.13384223
135	0x08	0.03453993
136	0xd8	-0.17269966
137	0xdd	-0.1511122
138	0x12	0.077714846
139	0x06	0.025904948
140	0x2b	0.18565212
141	0x04	0.017269965
142	0xfc	-0.017269965
143	0x04	0.017269965
144	0x12	0.077714846
145	0xd8	-0.17269966
146	0xf5	-0.047492404
147	0xff	-0.0043174913
148	0xfe	-0.008634983
149	0xe5	-0.11657227
150	0xdb	-0.15974718
151	0xfa	-0.025904948
152	0xf9	-0.030222438
153	0xfd	-0.012952474
154	0xf8	-0.03453993
155	0xfb	-0.021587458
156	0x09	0.038857423
157	0xf9	-0.030222438
158	0x10	0.06907986
159	0x22	0.1467947
160	0x0e	0.060444877
161	0x33	0.22019206
162	0x11	0.07339735
163	0xe7	-0.107937284
164	0x21	0.14247721
165	0x1d	0.12520725
166	0x02	0.008634983
167	0xf7	-0.038857423
168	0xef	-0.07339735
169	0x0d	0.056127388
170	0x14	0.08634983
171	0xf2	-0.060444877
172	0x01	0.0043174913
173	0x15	0.090667315
174	0x1a	0.112254776
175	0x26	0.16406468
176	0xff	-0.0043174913
177	0x08	0.03453993
178	0xe3	-0.12520725
179	0xfc	-0.017269965
180	0x1f	0.13384223
181	0x05	0.021587458
182	0xeb	-0.090667315
183	0x05	0.021587458
184	0x09	0.038857423
185	0x28	0.17269966
186	0x1e	0.12952474
187	0x11	0.07339735
188	0xf8	-0.03453993
189	0x37	0.23746203
190	0x0a	0.043174915
191	0xe2	-0.12952474
192	0xec	-0.08634983
193	0x15	0.090667315
194	0xe5	-0.11657227
195	0xe6	-0.112254776
196	0xfa	-0.025904948
197	0x02	0.008634983
198	0x1c	0.12088975
199	0xf1	-0.06476237
200	0x04	0.017269965
201	0x28	0.17269966
202	0x0f	0.06476237
203	0xf6	-0.043174915
204	0x03	0.012952474
205	0x0c	0.051809896
206	0x1d	0.12520725
207	0xf4	-0.051809896
208	0x11	0.07339735
209	0x01	0.0043174913
210	0xff	-0.0043174913
211	0x08	0.03453993
212	0xea	-0.09498481
213	0x1d	0.12520725
214	0xe2	-0.12952474
215	0x1c	0.12088975
216	0xff	-0.0043174913
217	0xe2	-0.12952474
218	0x0d	0.056127388
219	0x2f	0.20292209
220	0xf1	-0.06476237
221	0x0b	0.047492404
222	0x14	0.08634983
223	0x24	0.15542969
224	0x23	0.1511122
225	0xdf	-0.14247721
226	0xfd	-0.012952474
227	0xfb	-0.021587458
228	0xe3	-0.12520725
229	0x2b	0.18565212
230	0xfd	-0.012952474
231	0x15	0.090667315
232	0x1e	0.12952474
233	0x0c	0.051809896
234	0x0a	0.043174915
235	0xfc	-0.017269965
236	0x26	0.16406468
237	0x1c	0.12088975
238	0x1a	0.112254776
239	0xf2	-0.060444877
240	0xf3	-0.056127388
241	0x09	0.038857423
242	0x1b	0.11657227
243	0xf9	-0.030222438
244	0x16	0.09498481
245	0x1f	0.13384223
246	0xe8	-0.10361979
247	0x13	0.08203234
248	0x07	0.030222438
249	0x0f	0.06476237
250	0x18	0.10361979
251	0x09	0.038857423
252	0x0d	0.056127388
253	0xdb	-0.15974718
254	0x16	0.09498481
255	0x07	0.030222438

sequential_3/dense_7/MatMul i1 [10, 128] scale=0.011232703 zero_point=0
0	0xdc	-0.4043773
1	0xea	-0.24711947
2	0x09	0.10109433
3	0xfa	-0.067396216
4	0xf6	-0.11232703
5	0xe7	-0.28081757
6	0xd1	-0.52793705
7	0xfb	-0.056163516
8	0xd5	-0.48300624
9	0x0b	0.123559736
10	0xee	-0.20218866
11	0x0e	0.15725784
12	0xd6	-0.47177354
13	0xf1	-0.16849054
14	0xfd	-0.033698108
15	0x0a	0.11232703
16	0x0b	0.123559736
17	0xc6	-0.65149677
18	0xf6	-0.11232703
19	0xd6	-0.47177354
20	0x10	0.17972325
21	0xb9	-0.7975219
22	0xe8	-0.26958486
23	0xfe	-0.022465406
24	0xd4	-0.49423894
25	0xf9	-0.07862892
26	0xed	-0.21342136
27	0x03	0.033698108
28	0xff	-0.011232703
29	0x81	-1.4265532
30	0xe3	-0.32574838
31	0x14	0.22465406
32	0x12	0.20218866
33	0xd3	-0.50547165
34	0x06	0.067396216
35	0xff	-0.011232703
36	0xea	-0.24711947
37	0x08	0.089861624
38	0x8e	-1.2805282
39	0xfb	-0.056163516
40	0xde	-0.3819119
41	0x03	0.033698108
42	0xce	-0.56163514
43	0xfd	-0.033698108
44	0x13	0.21342136
45	0x06	0.067396216
46	0xdb	-0.41561002
47	0xff	-0.011232703
48	0xd0	-0.5391697
49	0xbe	-0.7413584
50	0x08	0.089861624
51	0xe2	-0.3369811
52	0xba	-0.7862892
53	0xce	-0.56163514
54	0xf4	-0.13479243
55	0x9c	-1.1232703
56	0x01	0.011232703
57	0x0f	0.16849054
58	0xae	-0.92108166
59	0xea	-0.24711947
60	0xb6	-0.83122003
61	0x08	0.089861624
62	0xc4	-0.6739622
63	0xc7	-0.6402641
64	0xcc	-0.58410054
65	0x04	0.044930812
66	0xff	-0.011232703
67	0x03	0.033698108
68	0x14	0.22465406
69	0xcc	-0.58410054
70	0xd6	-0.47177354
71	0x0c	0.13479243
72	0xd9	-0.43807542
73	0x0f	0.16849054
74	0x10	0.17972325
75	0xe4	-0.31451568
76	0xed	-0.21342136
77	0x0b	0.123559736
78	0xd4	-0.49423894
79	0xae	-0.92108166
80	0x11	0.19095595
81	0x0d	0.14602514
82	0xfc	-0.044930812
83	0x00	0.0
84	0xde	-0.3819119
85	0xe4	-0.31451568
86	0xca	-0.60656595
87	0xe1	-0.3482138
88	0x12	0.20218866
89	0x04	0.044930812
90	0xfa	-0.067396216
91	0xe4	-0.31451568
92	0xc6	-0.65149677
93	0xfd	-0.033698108
94	0xce	-0.56163514
95	0xd9	-0.43807542
96	0x0c	0.13479243
97	0x13	0.21342136
98	0x09	0.10109433
99	0x10	0.17972325
100	0xfd	-0.033698108
101	0xe1	-0.3482138
102	0xc7	-0.6402641
103	0xed	-0.21342136
104	0xf7	-0.10109433
105	0xd9	-0.43807542
106	0xda	-0.42684272
107	0x06	0.067396216
108	0xe8	-0.26958486
109	0xd1	-0.52793705
110	0xe1	-0.3482138
111	0xb2	-0.87615085
112	0xdf	-0.3706792
113	0x0e	0.15725784
114	0xb1	-0.8873835
115	0x10	0.17972325
116	0xb0	-0.89861625
117	0xbe	-0.7413584
118	0xd6	-0.47177354
119	0xe1	-0.3482138
120	0xe3	-0.32574838
121	0xfb	-0.056163516
122	0x02	0.022465406
123	0x02	0.022465406
124	0xdd	-0.3931446
125	0xef	-0.19095595
126	0xdc	-0.4043773
127	0xfd	-0.033698108
128	0xf1	-0.16849054
129	0x05	0.056163516
130	0xcc	-0.58410054
131	0xd4	-0.49423894
132	0xd3	-0.50547165
133	0xff	-0.011232703
134	0xc5	-0.6627295
135	0xd7	-0.46054083
136	0xf9	-0.07862892
137	0xce	-0.56163514
138	0x08	0.089861624
139	0xf3	-0.14602514
140	0x07	0.07862892
141	0xee	-0.20218866
142	0xe3	-0.32574838
143	0xf0	-0.17972325
144	0xd5	-0.48300624
145	0xf2	-0.15725784
146	0x05	0.056163516
147	0xd9	-0.43807542
148	0xf4	-0.13479243
149	0x17	0.25835216
150	0x02	0.022465406
151	0xb9	-0.7975219
152	0xeb	-0.23588677
153	0x04	0.044930812
154	0xfc	-0.044930812
155	0xc1	-0.7076603
156	0x01	0.011232703
157	0x12	0.20218866
158	0x04	0.044930812
159	0xde	-0.3819119
160	0xd3	-0.50547165
161	0xff	-0.011232703
162	0x15	0.23588677
163	0x03	0.033698108
164	0xec	-0.22465406
165	0x01	0.011232703
166	0x0e	0.15725784
167	0xc8	-0.62903136
168	0x0b	0.123559736
169	0xbe	-0.7413584
170	0x16	0.24711947
171	0xf0	-0.17972325
172	0xe2	-0.3369811
173	0xfa	-0.067396216
174	0x00	0.0
175	0xce	-0.56163514
176	0xfd	-0.033698108
177	0xdc	-0.4043773
178	0xe6	-0.29205027
179	0xfb	-0.056163516
180	0xd2	-0.5167043
181	0x15	0.23588677
182	0xf6	-0.11232703
183	0x12	0.20218866
184	0xf3	-0.14602514
185	0x0b	0.123559736
186	0x0c	0.13479243
187	0xec	-0.22465406
188	0xe6	-0.29205027
189	0xdb	-0.41561002
190	0x12	0.20218866
191	0xfd	-0.033698108
192	0xdf	-0.3706792
193	0xd0	-0.5391697
194	0xff	-0.011232703
195	0x07	0.07862892
196	0xe6	-0.29205027
197	0x04	0.044930812
198	0xed	-0.21342136
199	0xed	-0.21342136
200	0xc5	-0.6627295
201	0xce	-0.56163514
202	0x01	0.011232703
203	0x06	0.067396216
204	0xcd	-0.5728679
205	0x1d	0.32574838
206	0xd1	-0.52793705
207	0xf7	-0.10109433
208	0xc3	-0.6851949
209	0xce	-0.56163514
210	0xf5	-0.123559736
211	0xd0	-0.5391697
212	0x14	0.22465406
213	0xd0	-0.5391697
214	0x19	0.28081757
215	0xf8	-0.089861624
216	0xcd	-0.5728679
217	0xb5	-0.8424527
218	0x08	0.089861624
219	0xc7	-0.6402641
220	0x0f	0.16849054
221	0xbe	-0.7413584
222	0x08	0.089861624
223	0xd3	-0.50547165
224	0xfb	-0.056163516
225	0x1a	0.29205027
226	0xfb	-0.056163516
227	0x9b	-1.134503
228	0xcd	-0.5728679
229	0x0a	0.11232703
230	0xf2	-0.15725784
231	0x0d	0.14602514
232	0xde	-0.3819119
233	0x14	0.22465406
234	0xd8	-0.44930813
235	0xe8	-0.26958486
236	0xed	-0.21342136
237	0x05	0.056163516
238	0xcb	-0.5953333
239	0x04	0.044930812
240	0x0f	0.16849054
241	0xcf	-0.55040246
242	0xda	-0.42684272
243	0xb7	-0.8199873
244	0x18	0.26958486
245	0x02	0.022465406
246	0x11	0.19095595
247	0xc3	-0.6851949
248	0xb9	-0.7975219
249	0xe4	-0.31451568
250	0xa1	-1.0671068
251	0xf6	-0.11232703
252	0xfa	-0.067396216
253	0xea	-0.24711947
254	0xd6	-0.47177354
255	0x01	0.011232703
